models/gru_trained_model.pth (torch, 96571 bytes, 5 tensors)

gru.weight_ih_l0 f4 [192, 56]
000000 40 b8 95 3d f6 f9 81 3d b0 de 3e 3d 3c 0c c7 3d
       0.073105335 0.063465044 0.04659909 0.097191304
000010 40 76 d8 bb 9e c6 cf bd 88 eb d3 bd 0a 8c d7 bd
       -0.0066058934 -0.10145305 -0.103476584 -0.10524757
000020 90 37 df 3d aa 83 d7 bd 08 18 9d 3c 8c 4b 2d bd
       0.108992696 -0.1052316 0.019176498 -0.042308375
000030 80 56 e7 3a ce 37 cf 3d 10 59 78 bc 70 8c 12 bc
       0.001764968 0.10118066 -0.015157953 -0.008944616
000040 28 cb 6c 3d b0 4d 57 3d 00 6d b1 ba 1c 57 40 bd
       0.057810932 0.052564323 -0.0013536513 -0.046958074
000050 28 50 0b 3d d0 dc a3 bd ce 56 bf bd 00 6c 3f 39
       0.03401199 -0.08001101 -0.093427286 0.00018255413
000060 90 73 f6 bc 7a 17 ad bd 38 ca dc bc 20 5d 64 3d
       -0.030084401 -0.084517434 -0.026951894 0.055752873
000070 04 ba d4 3d 4c 7c 9d 3d e4 79 a1 3d fc a7 e1 bd
       0.10387042 0.07689723 0.07884577 -0.110183686
000080 7c 7d a1 bd 4c 9b b5 3d 2c 3f 64 3d 00 fb 1d bc
       -0.07885262 0.08867511 0.055724308 -0.009642363
000090 c4 53 85 bd d4 89 d3 3d 66 03 ae bd 06 04 db 3d
       -0.06510118 0.10329023 -0.08496742 0.10694127
0000a0 4a 34 f2 bd 40 c0 d6 3c f8 a0 06 3d 9e 90 ae bd
       -0.118263796 0.026214719 0.032868356 -0.08523677
0000b0 86 62 d0 bd 7e 05 a6 3d 80 9d 39 3d 30 36 0d bd
       -0.10175042 0.08106516 0.04531622 -0.034475505
0000c0 8a 32 9c bd f4 1e b8 3d 30 1b c1 bc 80 3e d3 bc
       -0.07626827 0.08990279 -0.023572534 -0.025786638
0000d0 04 d2 61 3d 7c 70 cf bd 50 37 20 bd e4 47 03 bd
       0.055131927 -0.101288766 -0.03911525 -0.032050982
0000e0 28 c6 d6 3d 92 17 8f 3d 90 c5 91 3c 56 12 bf bd
       0.10487014 0.069869176 0.0177944 -0.09329669
0000f0 c8 8b a6 bd 60 01 c0 3b 6e 67 f1 3d ac f3 51 bd
       -0.0813213 0.005859539 0.11787306 -0.051257774
000100 14 15 93 bd 1e 8b ce bd ea 47 cd bd ac bf 56 bd
       -0.07181755 -0.10085128 -0.10023482 -0.052428886
000110 84 9b ff bd d0 8b 43 bd 18 b4 29 3d 68 44 a1 3d
       -0.12480834 -0.047740757 0.041431516 0.078743756
000120 d8 92 2a 3d 80 de db 3c a0 d8 76 3c 08 7b e1 3c
       0.041643947 0.026839495 0.015066296 0.027524486
000130 a0 bb 8e bd aa 59 bf bd 00 27 3f 3a d0 51 f0 bc
       -0.069693804 -0.09343274 0.0007291883 -0.029335886
000140 60 44 81 bd c4 c5 0b 3d 6e 9e 85 3d 7a a4 a4 3d
       -0.063118696 0.03412415 0.06524359 0.08039184
000150 d0 e4 81 3c 68 4f 9e 3c 08 f8 0d 3d 78 39 75 bd
       0.015856177 0.019324973 0.03466037 -0.05986926
000160 80 3f 7c bd 02 2a f5 bd 34 a5 a6 3d 20 34 a5 bc
       -0.061583996 -0.11970903 0.08136979 -0.020166457
000170 60 6d e9 bd e6 7d aa 3d 46 f8 c8 bd 9c 76 8a 3d
       -0.11397815 0.083247945 -0.098129794 0.06760904
000180 e0 48 b7 3d 1e 25 c0 bd c0 a0 da bc c4 de 64 bd
       0.08949447 -0.093820795 -0.02668798 -0.05587651
000190 a4 8b ae 3d 18 88 ae bd 22 f0 f4 3d 80 52 61 3d
       0.08522728 -0.085220516 0.11959864 0.05501032
0001a0 38 c8 5a bd b0 cf c1 3d f0 ac 7f 3c 6c 9a 83 3d
       -0.0534136 0.09463441 0.015605196 0.06425938
0001b0 aa ab ff bd 92 95 a5 bd 5a a4 92 bd 1e 89 85 3d
       -0.12483914 -0.08085169 -0.07160254 0.06520294
0001c0 e8 eb d2 bc 34 18 d9 3d 88 99 0f bd a0 5f 41 bc
       -0.025747254 0.106003195 -0.03505853 -0.011802584
0001d0 92 94 b0 3d f8 6a d4 bd c0 42 8f bb 90 14 5a 3d
       0.086220875 -0.10371965 -0.004371971 0.053242266
0001e0 00 48 27 bb 3c c9 3a 3d a8 61 b8 bd 00 a4 6d bc
       -0.0025525093 0.04560207 -0.090030015 -0.014504433
0001f0 4c ef 0b 3d 92 d7 d0 bd e4 0f d5 3d 00 cc 6a b9
       0.03416376 -0.10197367 0.104034215 -0.00022391975
000200 00 7b 56 3a 70 22 13 3d 80 28 e9 3d 6c d7 9a 3d
       0.00081817806 0.035921514 0.11384678 0.0756062
000210 68 ce 2b 3d 24 74 79 3d ee 79 92 3d ca 27 fe bd
       0.04194489 0.060901776 0.071521625 -0.12409933
000220 c0 d4 c1 3b 00 dc f1 3a e2 59 dd bd fa f6 9c 3d
       0.0059152544 0.0018452406 -0.108081594 0.076642945
000230 b0 70 47 3c e0 e4 d0 3c 40 fb 42 bb de e2 b5 3d
       0.012172863 0.025499761 -0.0029751807 0.08881162
000240 80 aa 5a 3d 40 72 e9 bc ba af d3 3d 00 6a f1 39
       0.053385258 -0.028496861 0.103362516 0.00046046078
000250 2c 36 93 bd 2a 04 dd bd 90 28 3c 3c 9e 87 f4 bd
       -0.07188067 -0.1079181 0.01148428 -0.119399294
000260 5c 6d 6e bd 26 a5 ba bd c0 38 d3 3b da 7f e3 bd
       -0.058209762 -0.09113531 0.006445974 -0.1110837
000270 aa b0 d5 3d 98 5e 7f 3d 46 5d c8 3d 2a 78 eb bd
       0.104340866 0.06234607 0.097834155 -0.11497529
000280 cc c1 5b bd 7e 4c dd 3d 80 b2 87 3d 10 de 1d bc
       -0.053651616 0.10805605 0.06625843 -0.009635463
000290 2c 57 c3 3d 40 a7 1f 3c b2 2a a5 3d 5e 7b b8 bd
       0.09538111 0.009744465 0.08064784 -0.090079054
0002a0 7c 36 04 3d 60 82 cc 3c 80 2d fd 3a 7e ce 88 3d
       0.032278523 0.024964511 0.0019315928 0.0668001
0002b0 66 f2 ad 3d e8 2c c6 bd a4 ca e2 3d a2 8a 96 bd
       0.084934995 -0.09676534 0.11073807 -0.07350661
0002c0 1c a7 f4 bd 18 7b 9e bd 40 48 9e bd c0 af f0 bc
       -0.11945936 -0.07738322 -0.07728624 -0.02938068
0002d0 c0 84 c9 3c 72 d9 e9 bd 28 61 07 bd 2c a7 d3 bd
       0.024599433 -0.114184275 -0.03305164 -0.1033462
0002e0 04 ab b2 bd 0c b0 10 3d 24 ec c6 3d aa 7f bf 3d
       -0.08724025 0.03532414 0.09713009 0.09350522
0002f0 08 9c 25 bd b0 0a 36 bd 62 08 8a bd c0 c7 5b bb
       -0.040432006 -0.044443786 -0.0673988 -0.0033535808
000300 08 71 87 bc c2 e4 f3 bd ae e2 a5 3d ca 24 c1 3d
       -0.01653339 -0.119088665 0.08099876 0.09430845
000310 a6 47 d8 3d 74 db a9 bd 20 18 a9 bb 2c cb 83 3d
       0.10560541 -0.082938105 -0.0051603466 0.06435236
000320 80 85 de bd f4 7b 31 bd f0 44 53 3d 8e 0f 9f 3d
       -0.10865307 -0.0433311 0.051579416 0.07766639
000330 78 3e c6 bc c0 b3 40 bc 30 a7 02 3c 72 5d b9 3d
       -0.02419971 -0.011761606 0.007974431 0.090510264
000340 8c 57 b9 bd 00 8a 20 3c a2 a9 c8 3d da d3 be 3d
       -0.09049901 0.009798527 0.0979798 0.09317751
000350 a4 a5 f4 bd a6 cc c2 bd 0c 84 68 bd 20 23 ee bc
       -0.11945656 -0.0951169 -0.056766555 -0.029069483
000360 ee cd 81 bd 8c c4 38 bd b6 61 d9 bd a8 04 80 3d
       -0.06338106 -0.045109317 -0.1061434 0.06250888
000370 5e 21 89 3d 5a 8b 96 3d 70 ac a6 bc 3e 23 e7 3d
       0.066958174 0.07350798 -0.020345896 0.11286019
000380 a8 ce 76 bd 86 07 b7 3d c2 52 92 3d 88 fe cd 3d
       -0.060255677 0.08936982 0.07144691 0.100583136
000390 f8 05 12 bd 3a 36 a8 3d 64 bc aa bd 9c 01 32 bd
       -0.035650223 0.08213468 -0.08336714 -0.043458566
0003a0 f0 f1 8d 3d 14 67 9a 3d 68 82 a6 3d 8c 4c b4 bd
       0.069309115 0.07539192 0.08130342 -0.08803663
0003b0 80 3f 11 bc 18 ec 09 bd 84 76 67 3d 28 43 ec bc
       -0.008865237 -0.033672422 0.05650951 -0.028840616
0003c0 cc 20 d3 3d f8 4b 79 bd 5a 15 ef bd 88 23 9f bd
       0.1030899 -0.060863465 -0.11673994 -0.07770449
0003d0 28 a8 ca 3d 9c 53 70 bd 20 68 f1 bb ec 87 43 3d
       0.098953545 -0.058673486 -0.007367149 0.047737047
0003e0 2c 6d 0a 3d fa 1d e2 bd 00 9d 1c bc 58 37 2d bd
       0.03379552 -0.11040874 -0.009558916 -0.042289108
0003f0 4e c1 e7 bd 5e 0f 85 3d 50 51 15 3c ec 51 4a bd
       -0.11316167 0.06497072 0.009113625 -0.049394533

gru.weight_hh_l0 f4 [192, 64]
000000 9a 91 95 bd a4 04 c3 3d 7a a2 cf 3d e2 53 b1 bd
       -0.07303162 0.095223695 0.10138412 -0.086585775
000010 d8 91 90 3d a0 3a e8 bc e0 b9 ac 3b 40 c3 77 3b
       0.070590675 -0.028348267 0.0052711815 0.0037805587
000020 f0 ca 29 bc 70 18 be 3c 50 cb 62 3c a4 34 fa bd
       -0.0103633255 0.023205012 0.013842419 -0.12217072
000030 d6 c9 e3 3d 06 2e f1 bd 46 5f e9 3d f4 64 d8 3d
       0.111224815 -0.117763564 0.11395125 0.1056613
000040 6c f0 7f 3d 9a e3 f1 bd 36 6b f8 bd f2 6f fc 3d
       0.062485144 -0.1181099 -0.12129824 0.123260394
000050 a0 9d 8f 3d 28 1f a4 3c 7a 02 c5 bd a0 52 be 3b
       0.070124865 0.020034388 -0.09619613 0.0058081895
000060 b0 9f 7c 3c 68 90 aa 3d 00 ef ae bd b4 07 1e bd
       0.015418932 0.083283246 -0.085416794 -0.038581565
000070 aa 1a e2 bd 28 3c ec 3d 32 b7 ab bd d8 1f 13 bd
       -0.11040242 0.115349114 -0.08384551 -0.03591904
000080 88 c1 97 bd 72 7b e7 bd dc c0 cc bd 9c 0c 7b 3d
       -0.0740996 -0.11302842 -0.099977225 0.061291322
000090 64 18 b5 3d 54 27 51 bd 8c a0 9a bd 4c 97 9f 3d
       0.08842543 -0.051062897 -0.07550153 0.077925295
0000a0 00 3a 6e 3c e0 d8 4b bc ea 21 d4 3d d6 6f d1 3d
       0.014540195 -0.012441844 0.10358031 0.10226409
0000b0 10 4f 83 3c 40 b3 02 3c 8e 2e e7 3d 40 e2 ba bb
       0.01602891 0.007977307 0.112881765 -0.0057032406
0000c0 0a 33 c4 3d a0 d1 ee bb d6 32 94 3d e0 1b f8 3c
       0.095800474 -0.007288173 0.07236259 0.03028673
0000d0 b0 63 05 3d fa 94 f0 3d f0 4f b1 3d e6 72 fe bd
       0.032565773 0.11747165 0.08657825 -0.12424259
0000e0 be 81 fa 3d 7c cc 94 bd 50 37 19 3c b8 f8 b0 bd
       0.122317776 -0.07265565 0.009351566 -0.08641189
0000f0 f4 72 72 bd c0 82 40 bc 04 f7 e1 3d 8c 8f 12 bd
       -0.05919166 -0.011749923 0.110334426 -0.03578143
000100 b0 87 07 3c 6a bd 94 3d 40 ad 2e 3b 9c 24 38 3d
       0.0082720965 0.0726269 0.0026653558 0.04495679
000110 ac 75 42 3d b4 3a 0d 3d 04 93 2b bd 60 ef 35 bc
       0.047475502 0.03447981 -0.041888252 -0.011104435
000120 98 73 33 3d ea ae 8b 3d 28 7a 1d 3d 7a 3f b2 3d
       0.04381141 0.068204716 0.038446575 0.087035134
000130 1a 92 c0 bd 78 5d ca 3c 54 5e 4b 3d 08 da eb 3c
       -0.09402867 0.024702772 0.049650505 0.028790489
000140 70 8a ec bc 20 65 ae bc 6a 38 93 bd ae 63 de 3d
       -0.028874606 -0.021288455 -0.071884945 0.10858856
000150 c0 47 4d bc 32 e3 93 3d aa 31 ef 3d 74 5b 9d bd
       -0.012529314 0.072210684 0.116793945 -0.07683459
000160 e8 7d 80 bd 10 6d c1 bc 30 fd 45 3c 0e 6e 91 bd
       -0.06274015 -0.023611575 0.01208429 -0.071010694
000170 02 89 d6 bd 10 a4 59 3d 20 32 f7 3d ec 8e 22 3d
       -0.10475351 0.053134978 0.120701075 0.039687082
000180 f2 07 e3 bd e0 7e 7a bc 9e f1 d8 bd dc ea 91 bd
       -0.110855 -0.015289038 -0.1059296 -0.07124874
000190 d4 55 d0 3d d6 6f cc bd a0 ba 14 3c 32 1b ae 3d
       0.101726204 -0.099822685 0.009077698 0.08501281
0001a0 20 b6 cb bb 50 b7 c4 3c c8 eb cf 3d 18 6b 6a bd
       -0.0062167794 0.024013191 0.101523936 -0.05723104
0001b0 78 26 8d bd 9c 13 ad 3d fe 1e ff 3d c0 88 a6 bb
       -0.06892103 0.08451006 0.12457083 -0.00508222
0001c0 3a 9d e8 3d 92 80 92 bd 78 d7 b3 3c 8c d1 50 bd
       0.113581136 -0.07153429 0.02195333 -0.05098109
0001d0 3a 20 e2 bd 04 93 10 bd ec 0b a0 bd c4 93 32 bd
       -0.11041303 -0.035296455 -0.07814774 -0.04359795
0001e0 60 ce 65 bc 66 8f ae 3d 24 af 6c bd f8 0a 66 3d
       -0.014026254 0.08523445 -0.057784215 0.056162804
0001f0 14 65 3d bd c0 32 76 bd 38 87 09 bd c6 d1 81 3d
       -0.046238974 -0.060106993 -0.03357622 0.06338839
000200 00 15 44 bd a8 ef d6 bc 62 10 b5 bd 2a 76 dd 3d
       -0.04787159 -0.026237324 -0.088410154 0.10813554
000210 40 85 8b bd 28 c1 0e 3d 04 17 e7 bd 5e 14 e7 3d
       -0.06812525 0.034852177 -0.11283687 0.112831816
000220 20 89 b1 3c e0 61 38 3c 40 64 7b 3d cc a7 b3 3d
       0.021671832 0.011253804 0.061374903 0.08772239
000230 38 f5 c3 bc 90 0f 0c bc 58 55 b2 bc 54 80 f3 bd
       -0.02392064 -0.008548632 -0.02176921 -0.11889711
000240 c0 be da 3d dc a7 4d 3d 48 d1 50 3d 98 30 90 3c
       0.10680914 0.05020891 0.050980836 0.017601296
000250 de 3a f2 bd f2 02 b8 bd 78 11 97 3d 94 49 31 3d
       -0.11827634 -0.08984937 0.07376379 0.04328306
000260 d8 f0 9b bd 72 92 8a 3d e0 d1 cf 3d 4a 8e eb bd
       -0.07614297 0.067662135 0.10147452 -0.11501749
000270 20 ba fa 3b aa cd 96 bd 8e 8d d5 bd 1c 78 1f bd
       0.0076515824 -0.07363446 -0.1042739 -0.038932905
000280 48 54 df bd 9e 26 95 bd c8 bc 69 3d 7a f7 b5 3d
       -0.10904747 -0.07282756 0.0570648 0.08885093
000290 4a 2a 95 3d e4 5b 6e bd e6 27 b1 3d 6c 7c fd bd
       0.072834566 -0.058193102 0.08650188 -0.12377247
0002a0 a0 26 40 3d 0e f4 ff 3d dc 6f 21 bd 5c 62 86 3d
       0.046911836 0.124977216 -0.039413318 0.06561729
0002b0 16 17 c6 3d de 27 97 bd 1c e2 b1 3d 8c da c9 3d
       0.09672372 -0.07380651 0.08685705 0.09856138
0002c0 92 8e c4 bd 2c 1d 85 3d 10 3a 80 bc 84 3a 64 3d
       -0.09597506 0.06499705 -0.015652686 0.055719867
0002d0 92 66 9e bd 06 0b a1 3d b8 73 99 3d e8 bc f2 3c
       -0.077344075 0.07863431 0.07492775 0.029631093
0002e0 e0 a7 96 3b 66 67 82 bd ce 9e b0 3d 0a 0a 92 3d
       0.004597649 -0.06367378 0.086240396 0.07130821
0002f0 50 64 68 bd aa 23 8f 3d c0 2c 75 bb 84 2b f8 3d
       -0.05673629 0.06989224 -0.0037410706 0.12117675
000300 40 74 5c bb c8 dc f0 3c c8 1a e1 3d 10 f2 2c 3d
       -0.0033638626 0.029402152 0.10991436 0.042223036
000310 2c e8 17 3d 20 9b f7 bd 18 01 cc bc 64 f6 29 bd
       0.03708665 -0.120901346 -0.024902865 -0.041494742
000320 40 6f 02 bc e6 47 fc 3d 50 21 07 3c d8 da 85 bd
       -0.007961094 0.12318401 0.008247688 -0.06535882
000330 de e7 8b bd 00 9a 71 3d 18 1d c0 bc 40 3f 84 bd
       -0.068313345 0.058984756 -0.023451373 -0.064573765
000340 12 95 90 bd a6 87 e5 bd e2 19 9c 3d 50 66 4e 3c
       -0.07059683 -0.112075135 0.07622124 0.012597635
000350 f0 58 bc 3d fc 7c 5e 3d 0a 11 a2 3d 58 76 8a bd
       0.09196651 0.054318413 0.07913406 -0.067608535
000360 5e 3e 8f bd 7e ca cf bd d0 74 ce 3d fc 39 fb bd
       -0.069943175 -0.10146044 0.10080874 -0.12266919
000370 34 21 a6 3d 18 ca fb 3c 70 7e 49 3d fa 07 b4 bd
       0.08111802 0.030736014 0.049192846 -0.08790584
000380 06 2a dd 3d c0 10 19 3c ca a0 b4 3d d2 b7 ed bd
       0.10799031 0.009342372 0.088197306 -0.116073266
000390 be 62 d1 bd a8 8c b3 3c e2 63 aa 3d 7a df 83 3d
       -0.10223912 0.021917656 0.083198324 0.06439109
0003a0 ec 6e 30 3d 24 66 59 bd 30 60 9c bc 1c 83 ed bd
       0.043074533 -0.053075925 -0.019088835 -0.11597273
0003b0 58 a4 ea 3d c8 d2 8b 3d f8 4e 07 3d cc 1e 44 3d
       0.11457127 0.06827313 0.033034295 0.047880933
0003c0 c8 2a 2a bd 98 9e 82 3c d8 3c 01 3d f8 08 77 bd
       -0.041544706 0.015944764 0.031552166 -0.060311288
0003d0 3c 47 5e 3d 40 19 8d 3d 00 31 ad 3c 80 18 86 bb
       0.054267153 0.06889582 0.02114153 -0.004092276
0003e0 c8 85 92 bc 10 42 25 bd 08 9e 19 3d 64 13 d3 bd
       -0.017886057 -0.040346205 0.037504226 -0.10306433
0003f0 e8 a2 5d bd ec c9 cc 3d b6 42 d6 3d c4 14 08 bd
       -0.054110438 0.09999451 0.10461943 -0.03322293

gru.bias_ih_l0 f4 [192]
000000 b8 88 bd bd e2 a5 e7 bd 98 e1 71 3d b0 a0 6a 3c
       -0.09254593 -0.113109365 0.059053034 0.014320537
000010 10 2e 7f bd 6e 3f 80 3d f6 3e ac 3d ca f9 b7 bd
       -0.062299788 0.06262098 0.08410446 -0.0898319
000020 a0 4c 91 3d 3e 9e ef 3d ce 7e ca 3d 18 d8 dd bc
       0.07094693 0.11700104 0.09887467 -0.02708058
000030 31 c5 3b ba 68 ff 48 3d 04 31 59 bd c4 91 5f bd
       -0.00071628677 0.0490717 -0.05302526 -0.054582372
000040 08 44 d4 bd e0 f5 a8 3d 10 06 5c 3d e4 0c 2e 3d
       -0.103645384 0.08250022 0.05371672 0.042492762
000050 84 b9 e3 bd ea 30 f4 bd 50 08 f3 bd dc f1 40 3d
       -0.11119369 -0.11923392 -0.1186682 0.047105655
000060 4e 40 cb bd 8e 41 f8 3d b4 93 d7 3d 38 76 20 bd
       -0.099243745 0.121218786 0.10526219 -0.039175242
000070 7c c4 80 bd c8 cd 17 bd 70 cd df bc 08 f0 fa bd
       -0.062874764 -0.037061483 -0.02731964 -0.122528136
000080 1c 21 e4 3d 86 b3 d2 3d b8 34 db bd 40 41 65 bc
       0.111391276 0.10288148 -0.10703415 -0.013992608
000090 78 cc 54 3d e0 67 7a 3d 9a 83 fd bd d0 5c 53 bd
       0.05195281 0.06113422 -0.12378617 -0.051602185
0000a0 34 63 16 3d 70 79 a6 3c 62 3d de 3d dc 98 15 bd
       0.0367157 0.020321578 0.108515516 -0.03652273
0000b0 40 f9 f1 3d 08 c2 dd bc 7c 60 29 3d 70 72 4f bd
       0.11815119 -0.02707006 0.04135178 -0.050646245
0000c0 bc 0c b8 3d 26 b0 8f 3d 54 42 65 bd 74 d9 8f bd
       0.08986804 0.070160195 -0.05597146 -0.07023898
0000d0 fc b7 83 bd 76 75 c6 bd 2a 87 ba 3d be eb a1 bd
       -0.064315766 -0.09690373 0.09107812 -0.079062924
0000e0 e4 6b c5 bd 88 6a 25 bd 08 61 3a 3d 52 8c ad bd
       -0.09639719 -0.0403848 0.045502692 -0.084740296
0000f0 50 90 ee 3d 88 56 c4 3d 70 60 0f 3d 66 f1 da 3d
       0.11648619 0.09586817 0.03500408 0.10690574
000100 45 3a 27 3d 13 5f ad 3d 0e 0d bc 3d 9d 8b d6 bc
       0.040827055 0.084653996 0.091821775 -0.02618962
000110 ba 90 c6 3c b4 4f 65 3d 9c b3 8e 3d d8 2e 4c 3d
       0.024238933 0.055984214 0.069678515 0.04984936
000120 78 53 d9 3d 61 b4 d6 3d 6f 03 57 3d 7d fd 02 be
       0.106116235 0.10483623 0.05249351 -0.1279201
000130 89 bd 00 be 54 74 8b bd 24 0d 14 3b 95 45 9e bc
       -0.12572302 -0.06809297 0.002259084 -0.019320289
000140 45 bc be bd 38 60 01 3e 3c 9d 07 3d 0b f5 f1 bd
       -0.09313253 0.12634361 0.033108935 -0.11814316
000150 46 07 9f bd b2 db 1b bc 40 6c 89 3d 87 23 5a 3c
       -0.07765059 -0.009512829 0.067101 0.013314134
000160 a4 04 11 3e 82 1d 27 bd a6 f6 8b 3d e9 ff 86 3d
       0.14161927 -0.040799625 0.06834154 0.0659178
000170 ce c4 84 3c 48 7b 2e bd fa 01 e4 bd 79 1a 37 bd
       0.016207125 -0.04259804 -0.111331895 -0.04470298
000180 6e 03 d0 3d 14 65 3a 3d ec e7 9c bd 04 22 ab bd
       0.10156904 0.04550655 -0.07661423 -0.08356097
000190 e2 8f d5 bd 05 67 fb 3d 72 2c 0d be 23 24 12 be
       -0.10427834 0.12275509 -0.13786486 -0.14271598
0001a0 74 73 10 3d b4 a1 0d bd b0 73 4d be b6 bd f6 3c
       0.035266355 -0.03457804 -0.20063663 0.030119758
0001b0 2f 4c 01 bd 68 96 2d 3d a6 a1 93 bd 59 f1 98 bd
       -0.031566795 0.042379767 -0.07208566 -0.074679084
0001c0 1a 12 81 bc 75 7e 89 3d 29 9c ba 3d c8 fa 84 bd
       -0.015755702 0.06713573 0.091118164 -0.06493145
0001d0 9c 61 e2 bd 41 ab a4 bc 3f ed 8d bd dc c7 d3 3d
       -0.11053774 -0.020101191 -0.06930017 0.103408545
0001e0 d0 38 59 bc 19 52 d3 bb 24 c3 50 bd 7a c8 97 3d
       -0.013258174 -0.006448996 -0.05096735 0.07411285
0001f0 d2 d8 a4 bc 46 8d 1d 3e b1 dd c4 3d d1 60 da bd
       -0.02012292 0.15385923 0.09612597 -0.106629975
000200 04 07 5a bd 32 61 f6 bc 52 af 28 bd 06 5b 18 3e
       -0.053229347 -0.030075643 -0.041182823 0.14878473
000210 c0 cd 5b bc 39 35 64 3c 3f 49 f0 3d d6 78 95 3c
       -0.013415754 0.013928705 0.117327206 0.018246096
000220 8e ae e3 bc bb eb aa 3d 85 c1 05 3e 89 c5 17 3d
       -0.027793195 0.08345743 0.13062103 0.03705362
000230 69 ff a8 3d 17 5c a1 bd 6a 49 ad 3d 85 83 73 3d
       0.082518406 -0.07878893 0.08461268 0.0594516
000240 50 ca d2 bc 9e 8d c8 3d f8 f0 49 bd bb 0a 8c bc
       -0.025731236 0.09792636 -0.04930207 -0.01709496
000250 4e 76 0e bd 45 c8 7c bd 3c 4c 52 bd 2f aa aa 3d
       -0.034780793 -0.06171443 -0.051342234 0.08333241
000260 da b7 d1 bd 8b 15 5b 3c c2 66 a6 3d 50 43 95 3c
       -0.10240145 0.013371835 0.08125068 0.018220574
000270 78 84 87 bd f8 aa ff 3c a5 84 3a bc dd b9 77 bc
       -0.06617063 0.031209454 -0.011384164 -0.015119997
000280 99 48 9e bd 40 6e 0d 3d 3c 32 72 bd 01 8e b0 3c
       -0.07728691 0.03452897 -0.05912994 0.021552088
000290 1a 5e b8 bd 3c a1 8b 3d 49 5e 23 bd ee 62 f6 bd
       -0.090023234 0.068178624 -0.03988484 -0.12030588
0002a0 90 b5 07 3a 03 13 62 bd 5f b6 94 3d 90 94 5e bd
       0.0005176896 -0.055193912 0.07261347 -0.0543409
0002b0 f3 92 81 3d 42 fc 7e 3c 81 0b 8a 3c a3 32 19 3d
       0.063268565 0.015563073 0.016851189 0.037401807
0002c0 4c d2 fe bd d3 e1 bd bd 20 0e 6b bc 7b f1 ef 3d
       -0.12442455 -0.09271588 -0.014346629 0.117159806
0002d0 f2 b9 92 bb 42 3b 5a bb e4 7b e9 bd 2c 9d 86 bd
       -0.004477733 -0.003329948 -0.114005834 -0.06572947
0002e0 76 15 a8 bd 3d 56 13 bd 30 05 7a bc c0 52 be bd
       -0.08207218 -0.035970915 -0.015260026 -0.09293127
0002f0 e8 52 17 be ec aa 5e bd d0 17 db 3d ba 50 84 bd
       -0.1477772 -0.054362223 0.10697901 -0.0646071

gru.bias_hh_l0 f4 [192]
000000 bc ce 91 3d 18 f5 df bd 04 75 d4 3d d0 10 e9 bd
       0.071195096 -0.1093542 0.103738815 -0.1138016
000010 b0 ed 02 bc d4 5e 0c 3d 00 7a 0b bb 30 e9 ae 3c
       -0.007991239 0.034270123 -0.0021282434 0.021351427
000020 6a 5e 9a bd 40 47 14 3c 86 38 df 3d 9a f1 86 bd
       -0.07537539 0.00905019 0.10899453 -0.065890506
000030 e6 04 b1 bd 50 11 e9 3c 5a f7 bb 3d 1a fd 98 bd
       -0.086435124 0.028450638 0.09178038 -0.0747015
000040 88 4f ce bc 5c f3 27 3d b6 40 d6 bd 50 61 b9 3c
       -0.025184408 0.04100357 -0.104615614 0.02262941
000050 30 79 95 bc a4 f9 61 bd 40 53 79 3c ae 54 be bd
       -0.018246263 -0.055169716 0.015217602 -0.09293495
000060 e0 79 27 bc 30 a6 aa 3c 30 bb 31 3d 66 56 c5 bd
       -0.010221928 0.020831198 0.043391407 -0.0963562
000070 fc ae 58 bd 80 b2 25 3c 50 b0 49 3c b2 c9 bd bd
       -0.052901253 0.0101133585 0.012310103 -0.09266986
000080 c4 16 96 3d 80 41 ff 3a 76 aa ee 3d e0 b4 77 bc
       0.07328561 0.0019474477 0.116536066 -0.015118808
000090 70 fa 56 3c a2 1f ff 3d 46 c2 90 3d ae 2d bb 3d
       0.013121232 0.12457205 0.07068305 0.09139572
0000a0 f8 74 f0 bc b2 05 cf bd f4 79 cd 3d f0 f6 ff 3d
       -0.02935265 -0.10108508 0.10033026 0.124982715
0000b0 de cb a2 bd b8 92 10 bd 80 84 dc ba f2 62 fd bd
       -0.07949041 -0.035296172 -0.0016824156 -0.12372388
0000c0 60 1e 60 bd fe 93 93 bd 00 c4 8f 39 58 b7 78 bd
       -0.054716468 -0.07205962 0.00027421117 -0.060721725
0000d0 0c d5 dc bd f0 a2 45 bc 54 45 0d bd cc fe 6e 3d
       -0.10782823 -0.012062773 -0.034489945 0.058348462
0000e0 24 6e 94 3d 4e a5 cf bd 88 14 ea bc 48 01 08 bd
       0.0724757 -0.10138951 -0.028574243 -0.033204347
0000f0 e4 91 f5 bd 4c f1 6d bd 04 2a de bd 10 2b a8 3d
       -0.11990717 -0.058091447 -0.108478576 0.082113385
000100 4e fb bb bd 97 64 e3 bd 4a b3 a9 bd c7 a4 a4 3d
       -0.09178792 -0.1110317 -0.0828615 0.08039241
000110 28 29 b5 3c d0 ef 2b 3d 4d ed ac 3c 10 d9 5f bd
       0.022114351 0.04197675 0.021109248 -0.054650366
000120 71 b3 74 bd a5 c6 e3 3c a4 ca 65 bd af a9 c1 3d
       -0.05974144 0.027804682 -0.056101456 0.09456193
000130 82 5e 91 bd 14 54 bf bd 92 21 93 bd b2 33 39 bd
       -0.07098104 -0.093422085 -0.071841374 -0.045215316
000140 e2 e3 71 bd e7 a6 8c 3d ae 8f e9 bd 56 e2 ac 3c
       -0.059055217 0.068677716 -0.11404358 0.02110402
000150 c1 79 1c be 8e 0b ad bd 04 0a ab bd 1a 38 cd 3d
       -0.1528082 -0.084494695 -0.0835152 0.10020466
000160 81 2d fe bb d2 58 c7 bc 00 ce f5 3c b5 90 cd bc
       -0.0077568893 -0.024334345 0.030005455 -0.025093416
000170 1a 17 70 3d a3 8d 6f 3d ea 4b ba bd 6a fd 3c bc
       0.05861578 0.058484685 -0.09096511 -0.011535028
000180 a8 8c cc bd cd 9a 12 bc 76 15 ca 3d f8 f5 41 3d
       -0.099877656 -0.00894804 0.098673746 0.047353715
000190 ea f3 37 3d a9 c9 71 3c 90 f4 97 3d 0b 48 42 bd
       0.04491035 0.014757552 0.074196935 -0.047431987
0001a0 8c d7 d2 3c 33 64 9f 3d 20 15 52 be 10 14 de 3d
       0.025737546 0.07782783 -0.20515871 0.1084367
0001b0 ca e3 d5 3d bc 8b 9b 3d 1d b7 62 3d c3 38 e2 bd
       0.10443838 0.075950116 0.05535041 -0.11045983
0001c0 a2 03 8b bd 18 6f 35 bd 67 b9 a0 bc e5 1c bd 3d
       -0.06787802 -0.0442954 -0.019619657 0.09234027
0001d0 a1 90 ca bd 18 0b d2 bd 9a 31 ec 3c d4 a6 0d 3e
       -0.09890867 -0.10256022 0.028832246 0.13833171
0001e0 6f bf 3a 3c fe f0 d6 bd 70 bf 2b 3d de 06 02 3c
       0.01139818 -0.10495184 0.041930616 0.007936208
0001f0 cf 76 17 bd 88 38 e5 3d 3b 64 f3 3c 7b c4 90 3d
       -0.03697854 0.11192423 0.02971088 0.07068726
000200 a8 9a db 3a 0d 94 3c 3d 03 15 95 bd 8f 79 88 bb
       0.0016754465 0.04603963 -0.07279398 -0.0041648815
000210 db b5 df 3c 30 57 e4 3d c7 57 37 3d 1b dc f7 3d
       0.027308395 0.11149442 0.044761445 0.12102529
000220 61 3b 05 be 66 58 c9 3d a4 43 59 bc a8 a3 09 bd
       -0.13010933 0.09831314 -0.013260756 -0.03360334
000230 a3 84 a8 bd e9 e4 e0 3d 1c 83 59 3d 6b f6 39 3c
       -0.082284234 0.10981161 0.05310355 0.0113502545
000240 4c f8 4f bd e8 75 4d bd 70 8d 9e 3d 36 5c af bd
       -0.050773904 -0.050161272 0.07741821 -0.0856251
000250 89 08 b8 3d 93 23 39 3d f0 4d c8 bc 54 a9 c5 3c
       0.08986003 0.04519994 -0.024451226 0.024128594
000260 00 6f fa bc ea 4c 60 3c 1e 8e 9b bd 44 4f ad bd
       -0.030570507 0.013690213 -0.07595466 -0.08462384
000270 a0 dc e7 3c 13 6c cc bd c0 7b b8 3c d0 be 0e 3d
       0.028303444 -0.09981551 0.022519946 0.03484994
000280 2c ca a2 3d d7 e1 c2 3d 98 f2 ee bd a7 b3 2f 3d
       0.079487175 0.09515732 -0.11667365 0.04289594
000290 fe f1 7a 3d 22 30 f1 bd cb 3a 26 3e f0 bf c6 3d
       0.061265938 -0.11776759 0.16233365 0.09704578
0002a0 f0 e7 c5 3b e8 0e f7 3c fd 0b 96 bd e0 51 85 bd
       0.006039612 0.030158475 -0.07326505 -0.06509757
0002b0 f9 7c 05 be aa 69 02 3d 40 31 dc bd 29 67 b4 3d
       -0.13035955 0.03183905 -0.10751581 0.08808739
0002c0 50 4d c2 bd ed 25 87 3d c0 5c 06 3d 75 1a ed 3d
       -0.094874024 0.06599031 0.032803297 0.11577312
0002d0 a0 14 e9 3d 17 ee 11 be 00 af 27 bb ea 17 d1 bc
       0.11380887 -0.1425098 -0.0025586486 -0.025524098
0002e0 5c 7a 94 3d 6d 61 08 3d 12 68 d9 3d d8 c4 d1 bd
       0.07249901 0.033296037 0.10615553 -0.10242623
0002f0 11 d5 59 bd 20 3e 41 bd ac cc ab 3d f4 98 11 3c
       -0.05318171 -0.047178388 0.083886474 0.0088865645

fc.weight f4 [1, 64]
000000 c7 a2 a5 bd b1 86 9a be 1d 43 e8 be f0 49 c0 3e
       -0.08087688 -0.30180886 -0.45363703 0.3755641
000010 1d 09 12 3f 99 70 a5 be 7b 38 f4 bf 43 ca ac be
       0.57045156 -0.32312468 -1.9079736 -0.33748063
000020 01 ee 0f 3e 33 e6 8f 3e 9a d6 ec be 11 93 c6 3e
       0.14055635 0.28105316 -0.46257478 0.38784078
000030 99 93 8e bd c8 82 85 3e 97 55 a3 3d 11 84 f5 be
       -0.06961746 0.2607634 0.07975309 -0.4795232
000040 f3 c8 73 be a4 24 8f 3d 26 0b c2 3d 6a c4 48 bf
       -0.23807125 0.069894105 0.09474783 -0.78424704
000050 f3 ec d4 be 9b d6 ad be 1b 26 12 3f 3d 3a 4e 3d
       -0.41587028 -0.33952793 0.57089394 0.05034851
000060 8c 78 11 3f 4a 6f 3b be 8a b0 89 be 5f 1c fa bb
       0.56824565 -0.18304172 -0.268925 -0.0076327766
000070 2d 78 3a 3e 94 22 98 bf 71 41 8f 3e e8 bf 6b 3d
       0.18209906 -1.1885552 0.27979615 0.057556063
000080 fd 60 92 3e a2 f9 19 bf a6 66 20 c0 76 de b3 3e
       0.2858962 -0.60146534 -2.5062652 0.35130662
000090 69 3e e1 3e 5c e8 a9 3f 04 4f e8 3e 70 ff a7 be
       0.43992928 1.3274035 0.45372784 -0.3281207
0000a0 e6 2f 9b 3e 6c 1f ad 3e e3 9f 9d 3e f6 2a c5 bf
       0.3030998 0.33813035 0.30786046 -1.5403736
0000b0 bc 8f c5 be 56 2f 93 3e 7c 69 bf be 75 73 c0 3d
       -0.38586223 0.28747052 -0.37385166 0.09397022
0000c0 74 b3 07 be 6b e8 04 bf 7d d4 4a 3f 96 5e 3f 3e
       -0.1325205 -0.5191714 0.7923048 0.18688425
0000d0 fa 0e 15 bf e9 04 32 bf 9b fb 86 3e 99 60 d4 be
       -0.5822598 -0.6953874 0.26363835 -0.41479948
0000e0 5a 4f 15 3f 40 d9 7d 3e d8 4e 77 bd 25 3e e2 be
       0.58324206 0.24789906 -0.060377926 -0.44188038
0000f0 4c 17 1b 3d c4 6a 5d 3f ef 09 1b be 98 24 43 40
       0.037864015 0.86491036 -0.15140508 3.0491085
