models/lstm_rnn_trained_model.pth (torch, 161715 bytes, 9 tensors)

lstm.weight_ih_l0 f4 [256, 56]
0.12336739 -0.082390904 0.012465514 0.09431687 0.024803497 0.081181586 -0.0026264787 -0.052348003
0.113048136 -0.009950072 -0.121914 -0.007952854 0.06280173 0.102122635 0.08219913 -0.10801858
0.014471099 -0.091574416 0.118433 -0.04728897 0.046783835 0.016217172 0.047573358 0.014713779
0.114124745 -0.0058119595 0.081373096 0.060343966 0.013285682 0.0118359625 -0.042960778 -0.047305807
0.11311889 -0.10980269 -0.09557219 0.060503826 0.013980746 0.06397866 0.026596636 -0.02975123
-0.06549105 0.10590391 0.07508837 -0.027953684 -0.08479293 -0.106069535 0.06722458 0.055240065
0.0315177 0.005454242 0.090252385 -0.041398227 0.042738274 0.018407837 0.08412503 0.00041607645
0.004957917 0.09153773 0.10028796 -0.08923336 -0.03246297 -0.032185894 0.08482516 0.09598535
0.11484053 -0.067201704 -0.057838947 0.0025021583 -0.09231159 -0.017325804 0.019051775 -0.055340946
0.047283664 0.035629615 0.07391015 -0.015173882 0.024540082 0.11138117 -0.005334839 -0.026413888
-0.06300442 0.11845867 0.1050054 -0.12146182 -0.08659516 0.0975076 0.113282524 0.11050978
-0.06566107 -0.004184574 -0.12060477 -0.088577576 -0.08608852 -0.07022782 0.04848531 -0.049133617
-0.09050904 0.07790764 0.11450958 -0.09435377 0.0372781 -0.04198745 0.037700165 -0.108493775
-0.0064280396 -0.06452194 0.009059712 0.012577285 -0.012143305 0.1144378 0.019023523 -0.06599152
0.07227875 0.1178973 0.07958977 0.066125706 0.07912409 -0.11817925 -0.07027663 -0.0593556
0.06975356 -0.09679358 -0.121436715 0.10325326 0.026173666 0.022272706 -0.03862247 0.11511783
0.12116271 0.08243126 -0.10014105 0.034962595 -0.11866912 -0.023522243 -0.05784285 -0.113340676
-0.08294268 0.060253933 -0.011293486 0.0955441 -0.088906124 0.11102329 0.026188731 -0.056083545
0.040996924 0.064403236 0.11242288 -0.12447013 0.006970972 0.056792095 -0.089764595 0.07007858
-0.03229302 -0.017069235 -0.009754047 -0.071493015 0.09104815 -0.07286498 0.055474535 0.0045096874
0.09431212 -0.008334562 -0.044619977 -0.05683382 -0.11173615 -0.11103663 -0.12136944 -0.08625604
0.08883913 -0.11513016 -0.014449045 0.09221703 0.064321 0.03093262 0.069905564 -0.04192479
0.035753116 -0.011774331 0.074163556 0.06648983 -0.019792646 0.001708895 0.07836951 -0.015000671
-0.12206687 0.06406467 -0.040440544 0.007279575 -0.1007033 0.09662774 -0.09336145 0.05966392
0.07045306 -0.10725179 -0.05383672 -0.102790505 0.014534682 -0.08664936 0.11098792 0.090919256
-0.077993765 -0.083178535 -0.08148606 0.029446796 -0.061431497 0.028425142 -0.10726176 -0.06654778
0.08845706 0.093327925 -0.11219199 -0.099490225 0.10692017 -0.062345505 -0.050313234 -0.021860495
-0.010575861 0.04722874 -0.09048019 0.03765571 0.026169494 -0.018698111 0.06784409 -0.08717194
-0.035514623 0.062171966 0.075115606 -0.087743655 0.06129861 -0.109867886 0.04947795 -0.066462085
-0.09109266 -0.061270356 0.016548187 0.111802205 0.034022212 0.018864721 0.081306875 -0.06475039
-0.03160791 0.09257904 0.10952231 0.036163837 0.11499867 -0.06461373 0.020326242 -0.031245574
0.041340232 -0.017750233 -0.08895232 -0.0074764937 0.002305016 -0.021873668 -0.03393294 0.12389511
00000000: 0ba8 fc3d 90bc a8bd 283c 4c3c 3429 c13d
00000010: b430 cb3c 8842 a63d 0021 2cbb dc6a 56bd
00000020: c885 e73d a005 23bc 0cae f9bd b04c 02bc
00000030: 329e 803d ac25 d13d 0458 a83d d838 ddbd
00000040: 3018 6d3c 5e8b bbbd 008d f23d 14b2 41bd
00000050: 68a0 3f3d e0d9 843c 48dc 423d 1012 713c
00000060: 3cba e93d 4072 bebb f0a6 a63d 3c2b 773d
00000070: 30ac 593c a0eb 413c a4f7 2fbd bcc3 41bd
00000080: e0aa e73d 3ce0 e0bd 5abb c3bd dcd2 773d
00000090: 800f 653c 3e07 833d 30e1 d93c dab8 f3bc
000000a0: 2c20 86bd 26e4 d83d eec7 993d 20ff e4bc
000000b0: eaa7 adbd fc3a d9bd 0aad 893d 6843 623d
000000c0: b418 013d 80b9 b23b 3ed6 b83d 3091 29bd
000000d0: 540e 2f3d 08cc 963c be49 ac3d d624 da39
000000e0: 0676 a23b 2278 bb3d c663 cd3d fbbf b6bd
000000f0: e4f7 04bd 5bd5 03bd d0b8 ad3d f893 c43d
00000100: 8331 eb3d 0ca1 89bd 88e8 6cbd 40fb 233b
00000110: dc0d bdbd d8ee 8dbc 7812 9c3c 30ad 62bd
00000120: 84ac 413d 5cf0 113d 345e 973d e09b 78bc
00000130: 4808 c93c d01b e43d e0cf aebb f061 d8bc
00000140: 7608 81bd 769a f23d 120d d73d fac0 f8bd
00000150: ce58 b1bd 11b2 c73d ab00 e83d f452 e23d
00000160: 5079 86bd c01e 89bb a2ff f6bd 2968 b5bd
00000170: 2e4f b0bd 9ad3 8fbd 8898 463d 5540 49bd
00000180: ce5c b9bd 0a8e 9f3d 0084 ea3d 8d3c c1bd
00000190: ecb0 183d 08fb 2bbd 7d6b 1a3d fc31 debd
000001a0: 4ea2 d2bb 1424 84bd 306f 143c f510 4e3c
000001b0: b6f4 46bc 5e5e ea3d 38d7 9b3c 9026 87bd
000001c0: e206 943d 2474 f13d f6ff a23d ea6c 873d
000001d0: d00b a23d f607 f2bd 32ed 8fbd dc1e 73bd
000001e0: f4da 8e3d b63b c6bd d0b3 f8bd 7276 d33d
000001f0: 286a d63c 4075 b63c 9832 1ebd e6c2 eb3d
00000200: 2824 f83d b8d1 a83d c016 cdbd f034 0f3d
00000210: cc08 f3bd b8b1 c0bc a0ec 6cbd 281f e8bd
00000220: dadd a9bd d4cc 763d 5008 39bc a0ac c33d
00000230: 6a14 b6bd 2e60 e33d c089 d63c dcb7 65bd
00000240: 64ec 273d d8e5 833d f83d e63d 32ea febd
00000250: c06c e43b d49e 683d 80d6 b7bd 5c85 8f3d
00000260: b045 04bd c8d4 8bbc 70cf 1fbc ee6a 92bd
00000270: 7477 ba3d 3c3a 95bd 4439 633d 00c6 933b
00000280: b626 c13d b08d 08bc 70c3 36bd 94ca 68bd
00000290: ecd5 e4bd 2c67 e3bd 8a90 f8bd 02a7 b0bd
000002a0: 4af1 b53d 5cc9 ebbd b0bb 6cbc 48dc bc3d
000002b0: baba 833d 6866 fd3c a62a 8f3d 54b9 2bbd
000002c0: dc71 123d 20e9 40bc 10e3 973d d22b 883d
000002d0: 3024 a2bc 00fd df3a 3280 a03d 60c5 75bc
000002e0: 32fe f9bd 5634 833d fca4 25bd 8089 ee3b
000002f0: 883d cebd c4e4 c53d 4a34 bfbd 2862 743d
00000300: b249 903d d4a6 dbbd e483 5cbd d483 d2bd
00000310: e022 6e3c 3875 b1bd a24d e33d e033 ba3d
00000320: 32bb 9fbd 8259 aabd 2ae2 a6bd 683a f13c
00000330: 989f 7bbd d8db e83c 0eac dbbd 344a 88bd
00000340: fa28 b53d b622 bf3d eac4 e5bd 88c1 cbbd
00000350: f6f8 da3d 005e 7fbd 4015 4ebd c814 b3bc
00000360: 6046 2dbc ec72 413d ae4d b9bd e03c 1a3d
00000370: 6861 d63c c82c 99bc d8f1 8a3d 3487 b2bd
00000380: c877 11bd 08a8 7e3d 36d6 993d f2b2 b3bd
00000390: 4014 7b3d 6a02 e1bd 64a9 4a3d 461d 88bd
000003a0: ca8e babd a0f6 7abd 1090 873c 8ef8 e43d
000003b0: e05a 0b3d 308a 9a3c 3884 a63d da9b 84bd
000003c0: 4c77 01bd 149a bd3d 3c4d e03d 8820 143d
000003d0: 6c84 eb3d 3454 84bd 3883 a63c b8f6 ffbc
000003e0: 6054 293d f068 91bc a22c b6bd 60fd f4bb
000003f0: c00f 173b 6830 b3bc 44fd 0abd b8bc fd3d

lstm.weight_hh_l0 f4 [256, 64]
-0.026353225 -0.05657628 -0.038266703 0.05146627 -0.026550353 -0.089340925 0.053678885 0.016740322
-0.04647027 0.11771196 0.112342685 0.0051721036 0.068516314 0.00042252243 -0.0098819425 0.01127176
-0.08873904 -0.045198068 0.08528365 -0.043205604 -0.008263186 -0.0833289 0.057696015 0.08147159
0.112642825 0.0875871 0.075202495 0.03751965 0.117076814 0.0022384077 0.029751629 0.11646348
0.065770864 0.045501977 0.03208822 -0.09439427 0.114988565 0.026053404 0.03893362 0.1175078
0.036040038 -0.029990762 -0.09174305 -0.0809671 -0.036659315 0.060338438 -0.014640668 0.022484958
0.0049025714 0.10563378 0.010238305 0.099089354 0.08887461 -0.0926172 0.084454745 0.107847184
0.036418244 -0.123401105 -0.037840202 -0.011267105 0.07702871 -0.08974625 -0.11278845 -0.08627163
0.08199782 -0.09346868 0.058883123 -0.05513393 0.076089546 0.10158607 0.004150829 -0.07854991
0.08079676 -0.0055311876 -0.052938536 0.041128438 -0.10523997 0.014234081 -0.116032295 0.017482787
-0.044324968 0.0125442045 -0.0484177 0.034984052 0.09145208 -0.0049116462 -0.038503855 0.05223301
0.10218273 -0.017706186 -0.07881241 -0.103944525 0.09804166 0.113482736 0.05378039 0.031691637
0.121947825 -0.124059856 0.062507495 0.071752556 0.060590923 -0.03105304 -0.090844035 0.0013108245
0.03470416 -0.072255425 -0.048382014 0.11601308 -0.003586113 0.030444792 0.0126862405 0.034760937
-0.09407264 0.04914044 -0.004062161 -0.027255043 -0.022773042 -0.073178224 -0.040870532 -0.0063169594
0.036818728 0.021032378 0.053135153 0.06573749 -0.018314352 0.017780472 0.076017335 -0.0049544247
0.12451433 0.06744428 0.096871436 -0.12203024 0.010745198 -0.09955202 0.0062758923 0.03709556
0.10121228 0.06486085 -0.020661578 -0.111905366 0.087201014 0.11515491 0.042215914 -0.015192598
0.07430771 -0.05113262 0.008876711 -0.12349109 0.06810297 -0.062236592 -0.0941519 0.083599895
-0.05894047 0.019593209 0.054957405 0.08460033 0.029199168 -0.115917936 -0.029460892 0.020816728
-0.10404076 0.09776811 -0.120436996 -0.047491744 -0.08463983 -0.08668308 0.06706819 0.06879786
-0.107825235 0.03664711 0.081363454 -0.0442262 0.08863911 -0.055476233 -0.012083605 0.10138255
0.10770936 -0.08230056 0.088028446 -0.08885008 0.08270532 0.061094716 -0.0096280575 0.08188093
-0.0949731 -0.07240155 -0.097467616 0.109228045 0.10439344 0.08059387 -0.0675282 0.090451926
-0.12017146 0.095552504 -0.02223982 0.120834336 0.021724552 -0.096940055 -0.10490799 -0.02054286
-0.036498472 -0.0048205853 -0.06662522 -0.03358218 0.0796496 0.012778491 0.0933951 0.10991305
-0.05084382 -0.03129652 0.0102713555 -0.109882325 0.117399454 0.0016048551 0.082004145 0.0993527
-0.04670298 -0.048560202 0.051997572 0.09923473 -0.08113895 -0.09947713 -0.0979594 -0.037661955
-0.010642499 0.03639932 0.06793623 0.105981365 -0.07436198 0.09024033 0.036502004 -0.11234799
-0.09708764 -0.060574412 0.036209747 0.08994214 -0.070312604 -0.019280076 -0.0075431615 -0.037547797
0.03724493 -0.1108772 0.11882852 -0.113488376 0.064935744 -0.027865529 0.10102123 -0.0880938
-0.08887683 0.0060391575 0.09392981 0.059503242 0.07928613 0.10903236 -0.10648702 -0.06294839
00000000: b8e2 d7bc 88bc 67bd 8cbd 1cbd 4cce 523d
00000010: 2080 d9bc 60f8 b6bd 64de 5b3d 0023 893c
00000020: 9c57 3ebd f812 f13d ec13 e63d c07a a93b
00000030: 4852 8c3d 0086 dd39 dfe7 21bc 30ad 383c
00000040: d0bc b5bd 9c21 39bd 32a9 ae3d 5cf8 30bd
00000050: 5062 07bc 58a8 aabd a852 6c3d 94da a63d
00000060: 48b1 e63d de60 b33d c403 9a3d 34ae 193d
00000070: f8c5 ef3d 40b2 123b b0b9 f33c 6884 ee3d
00000080: e0b2 863d 4860 3a3d f06e 033d c851 c1bd
00000090: 207f eb3d f36d d53c dc78 1f3d eea7 f03d
000000a0: b89e 133d 30af f5bc c8e3 bbbd 14d2 a5bd
000000b0: 1428 16bd 7025 773d 6adf 6fbc 6032 b83c
000000c0: c0a5 a03b 8656 d83d 90be 273c 5cef ca3d
000000d0: e403 b63d 16ae bdbd 9cf6 ac3d fcde dc3d
000000e0: 4c2b 153d b8b9 fcbd 54fe 1abd aa99 38bc
000000f0: 3ac1 9d3d e2cc b7bd a2fd e6bd 2eaf b0bd
00000100: 79ee a73d 826c bfbd 6e2f 713d 1ed4 61bd
00000110: d6d4 9b3d 5c0c d03d ad03 883b c6de a0bd
00000120: c678 a53d f73e b5bb 14d6 58bd 4b76 283d
00000130: 0e88 d7bd 1036 693c 57a2 edbd 1038 8f3c
00000140: 198e 35bd 3586 4d3c a351 46bd 704b 0f3d
00000150: 3a4b bb3d e0f1 a0bb 38b6 1dbd 48f2 553d
00000160: 2e45 d13d 900c 91bc 6768 a1bd dee0 d4bd
00000170: 11ca c83d a369 e83d d448 5c3d 17cf 013d
00000180: c8bf f93d 1813 febd ee03 803d 01f3 923d
00000190: 302e 783d f262 febc 700c babd f9cf ab3a
000001a0: f325 0e3d a7fa 93bd 382c 46bd 4498 ed3d
000001b0: fe04 6bbb 5b67 f93c f3d9 4f3c 7c61 0e3d
000001c0: 28a9 c0bd 7c47 493d e01b 85bb f845 dfbc
000001d0: 888e babc 77de 95bd dc67 27bd 7ffe cebb
000001e0: 3ccf 163d 184c ac3c 3fa4 593d 61a1 863d
000001f0: fb07 96bc 5aa8 913c faae 9b3d ba58 a2bb
00000200: 5e01 ff3d 3a20 8a3d 8864 c63d feea f9bd
00000210: a00c 303c eee1 cbbd 00a6 cd3b 84f1 173d
00000220: 6248 cf3d c4d5 843d 7842 a9bc a42e e5bd
00000230: 7296 b23d 56d6 eb3d 98ea 2c3d 60ea 78bc
00000240: a42e 983d 7070 51bd a06f 113c e6e8 fcbd
00000250: 9279 8b3d cceb 7ebd b6d2 c0bd 6c36 ab3d
00000260: 906b 71bd f081 a03c 041b 613d f042 ad3d
00000270: 1833 ef3c 6266 edbd f857 f1bc d887 aa3c
00000280: 5213 d5bd a63a c83d aca7 f6bd b486 42bd
00000290: a657 adbd e686 b1bd 0c5b 893d e4e5 8c3d
000002a0: 7ad3 dcbd 481b 163d e2a1 a63d 8826 35bd
000002b0: 6c88 b53d 0c3b 63bd 50fa 45bc a8a1 cf3d
000002c0: ba96 dc3d 328d a8bd 4248 b43d 08f7 b5bd
000002d0: 6861 a93d 743e 7a3d 00bf 1dbc 30b1 a73d
000002e0: 4281 c2bd 4447 94bd 1a9d c7bd f4b2 df3d
000002f0: 3acc d53d 660e a53d 3a4c 8abd dc3e b93d
00000300: 741c f6bd 08b1 c33d 4830 b6bc fe77 f73d
00000310: b0f7 b13c 8288 c6bd 00da d6bd 8049 a8bc
00000320: 6c7f 15bd 00f6 9dbb ce72 88bd 788d 09bd
00000330: 541f a33d e05c 513c ee45 bf3d 181a e13d
00000340: 9c41 50bd c830 00bd 3049 283c fc09 e1bd
00000350: 206f f03d 005a d23a caf1 a73d 6e79 cb3d
00000360: a04b 3fbd 10e7 46bd 68fb 543d 943b cb3d
00000370: 2e2c a6bd aaba cbbd f09e c8bd 6c43 1abd
00000380: e05d 2ebc 7417 153d 2622 8b3d c20c d93d
00000390: 184b 98bd eccf b83d 2083 153d b416 e6bd
000003a0: e2d5 c6bd e01c 78bd ac50 143d 9633 b83d
000003b0: 0e00 90bd 40f1 9dbc a02c f7bb b8cb 19bd
000003c0: 248e 183d 9613 e3bd 5e5c f33d 986c e8bd
000003d0: 08fd 843d 4046 e4bc 38e4 ce3d 866a b4bd
000003e0: 0e05 b6bd 20e4 c53b 465e c03d acb9 733d
000003f0: c460 a23d 5c4c df3d de15 dabd 16eb 80bd

lstm.bias_ih_l0 f4 [256]
-0.05676043 0.0023991445 0.023855656 -0.11888224 0.035440475 -0.030690864 0.010555697 -0.12480345
-0.052004606 0.06795633 -0.040256158 0.107032344 -0.0780337 0.09353787 -0.09407838 -0.047757164
0.06254431 0.0141809285 0.097854316 -0.09471348 0.05571176 0.023943737 0.041127563 -0.08571094
-0.104890965 0.05308329 0.0009757495 0.05719416 0.11094852 -0.065690875 -0.002571213 -0.06658562
-0.097528085 0.09613219 -0.03435973 0.109041795 -0.06891532 -0.114523485 0.1243127 0.012486151
-0.11714186 -0.10183635 0.10902868 -0.032554954 0.06890816 0.06518747 -0.07587375 0.070431486
-0.028918486 -0.018049806 0.100439355 0.004628539 -0.003660217 -0.10189012 -0.039662227 0.08953847
0.06137401 0.08902021 -0.12281297 -0.12078053 0.06008844 0.017861212 -0.10078032 -0.052037604
0.107620254 0.08808937 0.06631605 -0.11857729 0.0011225939 -0.005335346 -0.039561976 -0.011500835
0.034118474 -0.056453828 -0.07963885 0.12414607 -0.088841766 -0.009229422 -0.08515452 0.022302732
-0.014401287 0.01385717 0.058414176 0.10111238 -0.0460712 -0.036366865 -0.0924194 -0.040360287
-0.095507205 0.005359277 -0.057758182 -0.00441584 0.0006554723 0.0973287 -0.08102949 -0.114011295
0.10915889 0.053082958 0.033535585 -0.112632416 -0.06984432 0.103885084 -0.08483235 -0.0021188557
-0.08399689 0.024493173 -0.090015054 0.06936717 0.08970207 -0.08315632 -0.041656032 0.004225895
0.02464962 0.020629376 0.07572006 -0.10263079 -0.06151955 0.051105194 0.028660417 0.049457073
-0.123312294 -0.00793241 -0.12189081 -0.08834727 0.06701059 0.00070680684 0.039435074 0.051199302
0.09803815 -0.026593855 0.12901293 0.11952195 -0.12159285 0.05502142 -0.08778541 0.07550403
0.10913424 -0.013990282 0.069148526 0.062187433 0.05631149 0.0723972 0.06487064 -0.030018449
0.082906544 0.060733315 0.076847896 0.11874296 -0.017765194 0.087956905 -0.09698695 0.06761296
-0.0761082 0.019614771 0.06565465 -0.11863822 0.087255865 0.12090531 -0.052802756 -0.096614175
-0.021690592 -0.071425915 0.11521074 0.08699776 0.10007618 -0.021469668 -0.09925079 -0.03920521
0.089286536 0.12116142 0.033686906 -0.050887063 0.09242192 0.041585535 0.10692892 -0.1066947
-0.038741156 0.12131411 0.089186564 -0.025277942 0.049446568 0.11746025 0.027407154 0.091080114
0.12129943 0.04547131 0.10844831 -0.008478031 0.07119925 0.07607645 -0.0056978166 0.09921933
-0.06621766 -0.016390944 -0.025709167 -0.043688476 0.03223136 0.10780485 0.028652743 0.023392834
0.03116946 0.11218457 0.10607087 -0.002428509 0.02483651 -0.040310666 0.043308545 0.044133067
-0.06728059 -0.0952799 0.037259847 -0.1204432 0.02122201 0.10636014 -0.08672567 -0.06570014
-0.09265801 -0.09275313 0.0279553 0.10898292 0.051100567 -0.078143336 0.04910113 -0.07377294
0.03757362 -0.112802915 -0.021196887 0.019664973 -0.10732885 -0.12307532 -0.09534928 -0.10430005
0.056449518 -0.062243324 0.0069304705 0.08097142 -0.02434879 -0.025527066 0.0042519104 0.12037198
0.054627433 -0.00411668 0.034895346 0.091339834 -0.088685766 0.06438209 -0.088253796 -0.08044262
0.075822145 -0.078860015 -0.007098238 -0.09718035 0.010336596 0.022517357 0.062342588 -0.043503594
00000000: a07d 68bd f73a 1d3b f06c c33c 8878 f3bd
00000010: 082a 113d 686b fbbc cdf1 2c3c f498 ffbd
00000020: c802 55bd b02c 8b3d a4e3 24bd c633 db3d
00000030: 22d0 9fbd c890 bf3d 2aac c0bd 049d 43bd
00000040: 3b17 803d 2057 683c d867 c83d 24f9 c1bd
00000050: 0432 643d a825 c43c 6075 283d 3889 afbd
00000060: 13d1 d6bd dd6d 593d 71c9 7f3a 6c44 6a3d
00000070: fa38 e33d f088 86bd cc81 28bb 0b5e 88bd
00000080: cebc c7bd f4e0 c43d cabc 0cbd 4e51 df3d
00000090: 7a23 8dbd 4a8b eabd a897 fe3d b792 4c3c
000000a0: 12e8 efbd 948f d0bd 6e4a df3d 5858 05bd
000000b0: b91f 8d3d 0281 853d b263 9bbd 623e 903d
000000c0: 76e6 ecbc 30dd 93bc 26b3 cd3d 00ab 973b
000000d0: 40e0 6fbb c4ab d0bd dc74 22bd f25f b73d
000000e0: 5063 7b3d 3a50 b63d 5e85 fbbd c85b f7bd
000000f0: 4c1f 763d ad51 923c ea65 cebd 6225 55bd
00000100: 0268 dc3d 3368 b43d b6d0 873d a6d8 f2bd
00000110: 0024 933a 20d4 aebb bd0b 22bd 006e 3cbc
00000120: d0bf 0b3d 213c 67bd b219 a3bd 4b40 fe3d
00000130: acf2 b5bd 0037 17bc 7e65 aebd 38b4 b63c
00000140: 60f3 6bbc 2f09 633c b443 6f3d 0214 cf3d
00000150: 28b5 3cbd 6cf5 14bd 6246 bdbd d450 25bd
00000160: 4899 c3bd e09c af3b d893 6cbd c0b2 90bb
00000170: 00d4 2b3a 4554 c73d caf2 a5bd c17e e9bd
00000180: b28e df3d 846d 593d 9c5c 093d d3ab e6bd
00000190: 8a0a 8fbd b4c1 d43d 95bc adbd 80dc 0abb
000001a0: 9006 acbd e8a5 c83c d059 b8bd 6010 8e3d
000001b0: b8b5 b73d dc4d aabd 849f 2abd 6079 8a3b
000001c0: 00ee c93c f0fe a83c 1e13 9b3d 1730 d2bd
000001d0: ecfb 7bbd ae53 513d 40c9 ea3c 8093 4a3d
000001e0: 288b fcbd f0f6 01bc e4a1 f9bd 6aef b4bd
000001f0: d93c 893d 0149 393a ac86 213d 5cb6 513d
00000200: 3ac8 c83d 5bdb d9bc f71b 043e edc7 f43d
00000210: ac05 f9bd 245e 613d d6c8 b3bd dba1 9a3d
00000220: c681 df3d 7f37 65bc be9d 8d3d 40b8 7e3d
00000230: e0a6 663d fc44 943d e6da 843d 40e9 f5bc
00000240: e8ca a93d 7fc3 783d 6e62 9d3d 822f f33d
00000250: 5088 91bc c022 b43d 18a1 c6bd aa78 8a3d
00000260: 9ede 9bbd 28af a03c f275 863d 98f8 f2bd
00000270: 34b3 b23d 349d f73d b447 58bd a7dd c5bd
00000280: 78b0 b1bc c047 92bd 9cf3 eb3d e22b b23d
00000290: bef4 cc3d 28e1 afbc 0044 cbbd a495 20bd
000002a0: dcdb b63d 7b23 f83d 48fb 093d f46e 50bd
000002b0: b447 bd3d 9855 2a3d 8dfd da3d c082 dabd
000002c0: 0caf 1ebd 8873 f83d 72a7 b63d b013 cfbc
000002d0: 7c88 4a3d 008f f03d f884 e03c 3688 ba3d
000002e0: d66b f83d 2040 3a3d 261a de3d 70e7 0abc
000002f0: ead0 913d f8cd 9b3d c0b4 babb 8133 cb3d
00000300: 209d 87bd 4d46 86bc 089c d2bc b0f2 32bd
00000310: 0805 043d cac8 dc3d 28b9 ea3c 54a2 bf3c
00000320: 1857 ff3c 06c1 e53d af3b d93d 9f27 1fbb
00000330: f075 cb3c cc1c 25bd 4d64 313d e0c4 343d
00000340: 68ca 89bd 1c22 c3bd c89d 183d edaa f6bd
00000350: c8d9 ad3c 58d3 d93d 3a9d b1bd cc8d 86bd
00000360: 7cc3 bdbd 5af5 bdbd 8302 e53c 7032 df3d
00000370: d44e 513d 9d09 a0bd 441e 493d 4416 97bd
00000380: cce6 193d 3705 e7bd 18a5 adbc 7018 a13c
00000390: 3acf dbbd ea0e fcbd 7c46 c3bd 449b d5bd
000003a0: 9c37 673d dbf2 7ebd 0019 e33b 58d4 a53d
000003b0: 1d77 c7bc 231e d1bc 9c53 8b3b 9685 f63d
000003c0: 04c1 5f3d 37e5 86bb 6cee 0e3d 6110 bb3d
000003d0: e2a0 b5bd c2da 833d 68be b4bd 1abf a4bd
000003e0: a448 9b3d 5c81 a1bd 5698 e8bb 7e06 c7bd
000003f0: d35a 293c 5276 b83c f15a 7f3d d330 32bd

lstm.bias_hh_l0 f4 [256]
0.11874151 0.053888816 -0.085376605 -0.07018013 0.06789602 0.053243414 -0.07933257 0.0879354
0.039560273 -0.044650897 0.07165628 0.110841095 -0.0312563 -0.09650481 0.09012507 0.06304173
-0.053619377 0.11707072 -0.09652932 0.05446893 0.111205116 0.04886757 -0.05019377 -0.05611609
0.08589589 0.03341644 -0.100825086 0.05659713 0.022458255 -0.11570005 -0.07081816 -0.01889533
-0.013817936 0.08914149 0.00871781 0.09267853 0.1161253 -0.025169248 -0.03917715 -0.085747086
0.105433226 -0.028153896 -0.12149374 -0.02880694 0.09174935 -0.11336443 -0.04952965 0.066279724
-0.014796022 -0.11765741 -0.102010936 0.012461379 0.10345659 -0.03970948 -0.073226556 -0.049806476
-0.030502155 -0.03370014 -0.052764237 0.0451311 0.05376318 0.07997807 -0.097393334 -0.1247873
-0.08242495 0.05516667 -0.03241116 0.11091176 0.07450782 0.035788342 0.03103939 -0.12317428
0.12087052 -0.018852077 0.12130763 0.02847329 0.09817624 -0.01686211 -0.0960685 -0.03578846
0.013741687 0.0014540047 0.08612409 0.03965509 0.09036733 0.075970024 -0.09029919 0.10695666
-0.031884775 -0.05749449 0.120327204 -0.10735844 0.06473783 0.032609858 -0.01978439 -0.033623368
-0.030967891 -0.118493125 -0.021119341 -0.042568974 -0.006624608 0.100191966 0.07161366 -0.058071613
-0.023388818 -0.00029534101 0.105870634 -0.106523156 0.099369735 0.12498422 0.07448855 0.10119277
0.01556018 -0.023025796 -0.035321355 0.037841175 -0.104683146 -0.104264 0.10561143 -0.09205197
0.096459195 -0.11651507 0.07020092 -0.108518064 -0.09019881 -0.09026058 -0.11179143 -0.0964203
0.083333224 0.04496393 0.066746466 -0.08878317 -0.07946053 -0.10868931 -0.00042304397 0.103057615
0.1046655 -0.07361113 -0.017502457 -0.11413076 -0.102023095 -0.021398619 -0.09912449 -0.04919985
-0.020796418 0.116764784 0.089619204 -0.051591232 -0.05379887 0.06695102 0.09001288 -0.08676955
0.10037206 -0.0004144162 0.027492613 0.06386684 -0.07324037 -0.08386229 -0.06868321 -0.09436258
0.11917375 0.04559505 0.07502544 -0.120344415 -0.054588035 -0.104786575 0.054233372 0.024733886
0.034148593 -0.08812412 0.033932924 0.08247051 0.09207986 0.12299362 -0.0059706843 -0.09404829
-0.037041336 -0.0154116005 -0.025740445 0.023935378 -0.10622229 -0.09971744 -0.009436354 -0.11205144
0.0077902824 -0.08429432 0.10843755 -0.113132805 -0.066601545 0.07087052 0.011628702 -0.005700342
0.060447935 -0.021426674 0.06367068 0.047747135 -0.104654685 0.031269714 0.042885974 -0.0610196
0.07482883 0.09678388 0.10042427 -0.09340411 0.10101245 -0.06400277 -0.08830676 -0.028613925
-0.08064459 0.10611172 0.06370288 -0.123776816 -0.02665414 0.06260508 -0.10946891 -0.048725873
0.00084619975 -0.0044632824 -0.08122032 -0.099715665 -0.1018202 0.0027801793 0.034443974 0.039377123
-0.1141438 0.04311061 -0.0811428 -0.07279669 0.051384553 -0.054712422 -0.10822739 -0.03866817
0.030456569 -0.00028206946 0.051481858 -0.015576169 0.016769579 0.0892195 -0.074248604 0.036985546
0.0034241956 0.011321764 -0.07640728 0.12992433 0.03862326 -0.09570287 0.021042392 -0.05267487
0.12096581 -0.08082275 -0.091346376 -0.06187573 -0.076297276 -0.089757435 0.112235636 0.012454685
00000000: c02e f33d 85ba 5c3d eed9 aebd 9aba 8fbd
00000010: 120d 8b3d c415 5a3d 1d79 a2bd 7a17 b43d
00000020: f409 223d dce3 36bd 87c0 923d a800 e33d
00000030: 9b06 00bd 50a4 c5bd 7e93 b83d 061c 813d
00000040: fe9f 5bbd c6c2 ef3d 2ab1 c5bd d01a 5f3d
00000050: 82bf e33d 5c29 483d fc97 4dbd fcd9 65bd
00000060: 2fea af3d addf 083d 627d cebd 64d2 673d
00000070: 60fa b73c 26f4 ecbd 1d09 91bd 61ca 9abc
00000080: a064 62bc d08f b63d 25d5 0e3c 3ece bd3d
00000090: 1ad3 ed3d bd2f cebc 3878 20bd 2b9c afbd
000000a0: 60ed d73d 00a3 e6bc b6d1 f8bd 88fc ebbc
000000b0: 15e7 bb3d 9c2b e8bd 9adf 4abd aabd 873d
000000c0: 046b 72bc 5ef6 f0bd 1ceb d0bd d02a 4c3c
000000d0: 0ce1 d33d 68a6 22bd cef7 95bd e001 4cbd
000000e0: a8df f9bc 2809 0abd 501f 58bd 63db 383d
000000f0: c836 5c3d 8bcb a33d 2876 c7bd 7c90 ffbd
00000100: 6ace a8bd 72f6 613d 91c1 04bd b425 e33d
00000110: 8e97 983d cc96 123d 5246 fe3c cc42 fcbd
00000120: f78a f73d ac6f 9abc 2270 f83d d140 e93c
00000130: a010 c93d 6822 8abc 90bf c4bd ec96 12bd
00000140: d024 613c 4d94 be3a d461 b03d 606d 223d
00000150: 8212 b93d 2c96 9b3d c8ee b8bd 180c db3d
00000160: 9c99 02bd 587f 6bbd 1c6e f63d bede dbbd
00000170: 4495 843d ea91 053d e012 a2bc a8b8 09bd
00000180: 60b0 fdbc 86ac f2bd 7802 adbc ce5c 2ebd
00000190: 3d13 d9bb 7231 cd3d 2faa 923d 80dc 6dbd
000001a0: e899 bfbc 00d8 9ab9 b4d2 d83d d028 dabd
000001b0: 5c82 cb3d baf7 ff3d 748d 983d 283e cf3d
000001c0: 20f0 7e3c 98a0 bcbc 20ad 10bd 59ff 1a3d
000001d0: 1e64 d6bd 5d88 d5bd ce4a d83d be85 bcbd
000001e0: 668c c53d 749f eebd 80c5 8f3d b83e debd
000001f0: 27ba b8bd 8ada b8bd e8f2 e4bd 0278 c5bd
00000200: 9caa aa3d 192c 383d 5fb2 883d f3d3 b5bd
00000210: 34bc a2bd 8098 debd 00cc ddb9 df0f d33d
00000220: de5a d63d 6fc1 96bd 5061 8fbc 63bd e9bd
00000230: 7cf1 d0bd 284c afbc c801 cbbd c885 49bd
00000240: 405d aabc 6022 ef3d 468a b73d 5451 53bd
00000250: 345c 5cbd 9e1d 893d ac58 b83d 3cb4 b1bd
00000260: de8f cd3d 0046 d9b9 3038 e13c 9ecc 823d
00000270: 0cff 95bd febf abbd c8a9 8cbd 2b41 c1bd
00000280: 5e11 f43d e0c1 3a3d f0a6 993d 2277 f6bd
00000290: b497 5fbd 589a d6bd d023 5e3d b89e ca3c
000002a0: 65df 0b3d 6b7a b4bd 40fd 0a3d 4ce6 a83d
000002b0: 5e94 bc3d 14e4 fb3d bba5 c3bb 649c c0bd
000002c0: a8b8 17bd f080 7cbc a0dd d2bc 2014 c43c
000002d0: 128b d9bd a838 ccbd f09a 1abc 3a7b e5bd
000002e0: a045 ff3b 80a2 acbd 8214 de3d 2cb2 e7bd
000002f0: 6466 88bd 9024 913d 5086 3e3c efc9 babb
00000300: 4198 773d fe86 afbc c665 823d 8092 433d
00000310: 3255 d6bd ac14 003d 34a9 2f3d b0ef 79bd
00000320: dc3f 993d a036 c63d 3dab cd3d a74a bfbd
00000330: 9edf ce3d e213 83bd 2dda b4bd c067 eabc
00000340: fe28 a5bd 1a51 d93d a876 823d b37e fdbd
00000350: c859 dabc 1837 803d 3c31 e0bd c894 47bd
00000360: 81d3 5d3a ba40 92bb d756 a6bd ba37 ccbd
00000370: 1c87 d0bd ab33 363b 2015 0d3d e849 213d
00000380: 3ac4 e9bd c094 303d 322e a6bd 6e16 95bd
00000390: 9c78 523d 221a 60bd 52a6 ddbd 8462 1ebd
000003a0: 0e80 f93c b9e2 93b9 a4de 523d 3033 7fbc
000003b0: 5b60 893c b7b8 b63d a70f 98bd 287e 173d
000003c0: 7868 603b ec7e 393c 6c7b 9cbd e20a 053e
000003d0: 6c33 1e3d deff c3bd 1861 ac3c 9bc1 57bd
000003e0: ecbc f73d 6686 a5bd cf13 bbbd 6871 7dbd
000003f0: bf41 9cbd bfd2 b7bd ccdb e53d bc0e 4c3c

rnn.weight_ih_l0 f4 [64, 64]
0.0023630732 0.087616734 0.09721822 0.0035587682 -0.06679495 -0.0011342168 0.021636698 0.0057798517
0.11222161 -0.055099707 0.015242691 -0.022469025 -0.019568872 -0.10596375 0.14810173 0.043945327
-0.06494229 0.0047102994 -0.05935306 -0.12698394 -0.014378149 0.03465898 -0.06243295 -0.11776828
-0.1343228 0.0007637808 0.03553411 0.020843158 -0.025934916 -0.3622753 0.07422701 0.088227704
-0.012906089 0.073782526 -0.09927955 -0.07526944 0.042005748 -0.07750938 0.07859592 -0.0034395366
-0.024804156 -0.026838679 0.12372335 -0.042499594 0.0700276 -0.0506099 -0.10009885 0.020821253
0.022432663 0.0974919 -0.088277325 -0.06604059 -0.0051042736 -0.026818197 0.014608747 -0.07729512
-0.070658624 -0.13832797 -0.12397995 0.13847016 -0.14282246 -0.1302998 0.0015092526 0.12619601
-0.052479744 0.019446552 0.07387509 0.040867846 -0.08082537 -0.08182831 -0.100182444 -0.0071997494
-0.005753903 -0.024762146 0.06505863 -0.077909134 0.11918674 0.029970065 0.024191877 0.09995724
-0.036479786 0.041914806 -0.1019165 -0.0787092 -0.07130434 -0.12660176 -0.095606975 0.066640176
-0.014759885 -0.02112201 -0.09883824 0.096677646 -0.037262682 -0.5106332 0.016075712 0.10544926
-0.104297414 0.09961608 -0.0074891946 -0.018683393 -0.11979005 0.024557974 -0.04556519 0.021201884
-0.04356436 -0.04618739 0.036226775 0.13937405 0.035116453 0.057422455 0.022332342 -0.08728213
-0.075757764 -0.06888416 -0.01202108 0.09812573 -0.07854846 -0.01032501 -0.079551786 -0.018079376
0.010691919 -0.0693039 0.035666417 -0.024041938 -0.06486064 0.027168753 0.08602315 0.0066337325
0.11638889 -0.057951428 0.034098834 0.06311511 -0.07754706 -0.041458502 0.13142551 -0.107525155
0.002528103 0.08371277 0.062079515 0.061274394 -0.06595257 -0.027991071 -0.038268127 -0.10446951
-0.030856555 0.059753902 0.097356476 0.120109886 -0.075089745 0.016493546 0.0017017073 0.020115197
0.09994808 0.044647172 -0.076947056 -0.013446133 -0.009833837 0.3086372 -0.0786532 -0.046437837
-0.011618987 0.036260452 0.078242995 0.025679033 -0.047544405 -0.05930466 -0.050373606 -0.14655505
-0.10158679 0.034146696 -0.048530348 -0.01204557 -0.027813913 -0.038450215 -0.11718881 0.13403213
-0.036906067 0.043432638 -0.024154335 0.060585596 0.07631943 0.054729946 -0.12946707 0.060059045
-0.09946174 0.07447243 -2.0330606e-05 -0.0566285 -0.0011859362 0.128342 0.021096338 0.082224414
0.03468116 -0.109557815 0.119353846 0.05546024 -0.0014847158 -0.049416125 0.122319885 -0.047424138
0.09641358 -0.03896337 -0.029937277 0.09550884 -0.01878553 0.037123278 -0.015292064 -0.11596288
-0.114395216 -0.089224555 -0.019485073 -0.006903906 0.12656118 0.055455524 -0.059525963 -0.037842803
0.029023547 0.048589796 -0.086007915 -0.041096073 -0.10707578 0.46273437 -0.06589768 -0.008717555
-0.10208081 0.03370837 0.01401812 -0.1426902 0.010175033 0.075170904 -0.08846886 0.053960033
0.0414562 0.09797544 0.03433634 0.034386884 0.060793035 0.033078946 -0.06403043 -0.0865755
-0.13172887 0.06407012 0.0626494 -0.05943559 0.004016429 -0.14580712 0.05892243 -0.016519502
0.073306546 0.034009952 -0.0130964415 -0.1357293 -0.0026127032 0.05323377 -0.034840945 -0.0021777966
00000000: cadd 1a3b 6770 b33d 591a c73d 393a 693b
00000010: cacb 88bd 00aa 94ba 723f b13c e964 bd3b
00000020: 72d4 e53d 3bb0 61bd 7bbc 793c f610 b8bc
00000030: e64e a0bc 8603 d9bd fba7 173e 0400 343d
00000040: 7700 85bd db58 9a3b 321c 73bd 1408 02be
00000050: 5492 6bbc 93f6 0d3d b1b9 7fbd 7f30 f1bd
00000060: eb8b 09be 7638 483a 378c 113d 45bf aa3c
00000070: 7675 d4bc 267c b9be 5504 983d bab0 b43d
00000080: 1074 53bc 4b1b 973d 1453 cbbd dd26 9abd
00000090: 380e 2c3d 3dbd 9ebd e6f6 a03d d969 61bb
000000a0: 1632 cbbc cadc dbbc ab62 fd3d 0e14 2ebd
000000b0: a16a 8f3d 544c 4fbd a000 cdbd 5591 aa3c
000000c0: b4c4 b73c d5a9 c73d beca b4bd 4a40 87bd
000000d0: c041 a7bb d6b1 dbbc 8759 6f3c e74c 9ebd
000000e0: 78b5 90bd d9a5 0dbe 33e9 fdbd 1fcb 0d3e
000000f0: 0d40 12be 506d 05be 1dd2 c53a 8739 013e
00000100: 00f5 56bd 604e 9f3c d34b 973d 0b65 273d
00000110: c687 a5bd 9a95 a7bd 742c cdbd e0eb ebbb
00000120: 3d8b bcbb fcd9 cabc 763d 853d d38e 9fbd
00000130: 2d18 f43d c883 f53c 0b2e c63c 62b6 cc3d
00000140: d46b 15bd dcae 2b3d 99b9 d0bd 4a32 a1bd
00000150: 0308 92bd e4a3 01be 97cd c3bd a57a 883d
00000160: 72d3 71bc 1108 adbc b46b cabd eefe c53d
00000170: c1a0 18bd dbb8 02bf 36b1 833c c8f5 d73d
00000180: e299 d5bd 8403 cc3d eb67 f5bb ea0d 99bc
00000190: 7c54 f5bd ce2d c93c 91a2 3abd 93af ad3c
000001a0: 8b70 32bd fd2e 3dbd 8762 143d 12b8 0e3e
000001b0: 45d6 0f3d cf33 6b3d 51f2 b63c f9c0 b2bd
000001c0: e326 9bbd 2313 8dbd 10f4 44bc 25f6 c83d
000001d0: 04de a0bd 3b2a 29bc 0cec a2bd 331b 94bc
000001e0: 292d 2f3c 34ef 8dbd f316 123d 99f3 c4bc
000001f0: a8d5 84bd 0191 de3c e82c b03d c85f d93b
00000200: 4c5d ee3d 7a5e 6dbd 38ab 0b3d 7f42 813d
00000210: fed0 9ebd 64d0 29bd 6994 063e 2636 dcbd
00000220: 88ae 253b 9a71 ab3d 1747 7e3d dcfa 7a3d
00000230: 2412 87bd 884d e5bc 0abf 1cbd 1cf4 d5bd
00000240: e3c6 fcbc 82c0 743d d562 c73d 2cfc f53d
00000250: a7c8 99bd 791d 873c d20b df3a a0c8 a43c
00000260: 94b1 cc3d f4df 363d 6b96 9dbd 2b4d 5cbc
00000270: 1a1e 21bc b205 9e3e ee14 a1bd 9a35 3ebd
00000280: 905d 3ebc d785 143d dd3d a03d d65c d23c
00000290: ecbd 42bd 71e9 72bd 8e54 4ebd 8712 16be
000002a0: bc0c d0bd 68dd 0b3d c2c7 46bd c85a 45bc
000002b0: 01da e3bc f97d 1dbd b000 f0bd b83f 093e
000002c0: d12a 17bd 6ce6 313d 50df c5bc 9a28 783d
000002d0: 5c4d 9c3d 822c 603d 0493 04be 7900 763d
000002e0: 99b2 cbbd 0085 983d a58b aab7 49f3 67bd
000002f0: 6a71 9bba 166c 033e 3ad2 ac3c 4665 a83d
00000300: d50d 0e3d d95f e0bd ca6f f43d 472a 633d
00000310: cc9a c2ba 9068 4abd d982 fa3d d03f 42bd
00000320: 7c74 c53d 0e98 1fbd 053f f5bc 249a c33d
00000330: 1de4 99bc 940e 183d 918b 7abc f27d edbd
00000340: 0a48 eabd 5dbb b6bd 299f 9fbc 293a e2bb
00000350: 4199 013e 5525 633d 7fd1 73bd 0e01 1bbd
00000360: cac2 ed3c 1806 473d eb24 b0bd 5b54 28bd
00000370: 8c4a dbbd 85eb ec3e 5df5 86bd 13d4 0ebc
00000380: be0f d1bd ca11 0a3d 42ac 653c 611d 12be
00000390: 2eb5 263c 34f3 993d 292f b5bd 3205 5d3d
000003a0: facd 293d 59a7 c83d 43a4 0c3d 43d9 0c3d
000003b0: 1e02 793d ca7d 073d 6322 83bd 7f4e b1bd
000003c0: efe3 06be 3237 833d 544e 803d bc72 73bd
000003d0: 409c 833b 764e 15be a558 713d e853 87bc
000003e0: be21 963d 054e 0b3d 7592 56bc 9ffc 0abe
000003f0: e339 2bbb a70b 5a3d 61b5 0ebd 5db9 0ebb

rnn.weight_hh_l0 f4 [64, 64]
0.116266504 0.10938739 -0.19960518 0.027422275 0.034806967 -0.006450106 0.011944187 -0.16929533
-0.052453708 -0.042630333 0.032159597 0.04654173 -0.016997412 0.04486399 0.07458031 -0.19022156
0.04951608 0.033233415 -0.027565205 0.00039645712 0.07704864 -0.022759022 0.07764297 0.15069824
0.033723377 0.073344484 -0.028316135 -0.13277099 -0.054999452 -0.12582476 -0.13795333 -0.026205437
-0.13294059 -0.031901058 -0.14634539 0.07946415 -0.067374565 -0.07783087 -0.055864107 -0.028807444
-0.041433766 0.024995618 0.045416314 0.006574336 -0.0056915516 -0.096751645 0.044668425 0.05997733
-0.20447966 0.1765785 0.11424258 0.066782296 -0.008618715 -0.0057119145 -0.08737706 -0.114484675
-0.06164522 -0.13765296 -0.02040674 -0.059412178 0.0071183806 0.0065322886 0.043027975 0.06913181
-0.039578386 0.12373935 -0.11789329 -0.0018313053 -0.19550729 -0.039930966 0.028299354 0.04646332
0.07797154 -0.063358426 0.001667666 0.14357467 0.12534495 -0.16804522 -0.056414124 -0.009494472
0.0135119865 0.15541826 -0.09680629 -0.07538054 -0.06413392 -0.047933213 0.031281028 0.03802061
-0.027670704 0.09715589 0.041155294 -0.11538033 -0.020891605 -0.17593782 -0.061553586 0.0124740265
0.034030434 0.02840801 -0.04024364 0.02463598 0.0017516857 -0.049771573 0.0797151 0.09483266
-0.05995365 0.016004592 -0.08863948 0.114760876 0.13572884 -0.06073448 -0.08362544 -0.08739537
-0.16860951 0.122025505 -0.11077185 0.062012013 0.04224511 -0.05293111 -0.059772823 -0.12373239
-0.03542191 -0.06596557 -0.10830332 0.121504165 -0.011946593 -0.058413383 -0.07824721 -0.06292239
-0.10197903 -0.035845947 -0.039022256 0.048731275 0.05728389 -0.08809974 -0.14024971 0.013704715
-0.06977171 0.045514997 0.03134132 -0.12174065 -0.053718377 0.089820065 0.09715233 0.012453437
0.071581535 -0.051143568 -0.042807646 0.0752248 -0.08285634 0.030806549 -0.12527527 -0.096215054
-0.02702041 -0.16887015 -0.08044268 0.15994288 0.06625357 0.12538588 -0.026949052 -0.06770735
0.068194665 -0.07382688 0.08889811 -0.026959402 0.08291703 0.10810223 0.14467481 0.07158093
-0.024568815 -0.07833467 0.090107985 -0.013624209 -0.14048506 0.076821014 0.006311616 0.06818809
0.1392742 -0.14712419 0.09995765 -0.09007882 0.10521398 0.010657613 0.06586528 -0.0725908
0.15431677 0.095210016 0.10779409 -0.028712327 0.020850543 0.13788153 -0.087844595 0.0099987695
-0.1062519 -0.029466419 -0.09203658 -0.00915735 -0.090264164 0.017316652 -0.09177265 0.04439725
-0.10481137 -0.12947285 0.06797428 -0.14908797 -0.11918529 -0.024759071 -0.043208644 0.09615353
-0.015892044 -0.03424925 -0.058070168 0.034295045 -0.09358371 -0.031107882 -0.10387138 -0.09451052
0.07189553 0.085147604 0.15232807 0.1528671 -0.008254607 -0.0780042 0.07326296 -0.0036638249
0.08107039 -0.00012681952 0.07292483 -0.021498077 0.07146505 0.024102265 0.051698998 -0.04908101
-0.059156172 -0.07163387 -0.12354556 -0.082352154 0.008355134 -0.022796795 0.06850771 -0.013908957
0.0607649 -0.014051672 -0.035170846 -0.012476395 0.14834261 -0.14453974 -0.0326592 0.12975572
-0.047581904 -0.0007549413 0.0028709583 0.06585336 -0.07277578 0.14214616 -0.15075117 -0.15221967
00000000: 221d ee3d 7f06 e03d 4d65 4cbe aea4 e03c
00000010: c091 0e3d 695b d3bb 8db1 433c c15b 2dbe
00000020: b3d9 56bd 259d 2ebd c8b9 033d 8ba2 3e3d
00000030: 283e 8bbc 4ec3 373d 90bd 983d 71c9 42be
00000040: 60d1 4a3d c31f 083d 6dd0 e1bc 93db cf39
00000050: adcb 9d3d 2171 babc 4703 9f3d a450 1a3e
00000060: 8621 0a3d a235 963d 3df7 e7bc 1ef5 07be
00000070: 1b47 61bd 35d8 00be a343 0dbe c9ac d6bc
00000080: 9421 08be afaa 02bd 91db 15be 1abe a23d
00000090: adfb 89bd cb65 9fbd c3d1 64bd 97fd ebbc
000000a0: 74b6 29bd 9cc3 cc3c 7506 3a3d 876d d73b
000000b0: 3280 babb ba25 c6bd 3df6 363d caaa 753d
000000c0: 1e63 51be ffd0 343e 04f8 e93d 28c5 883d
000000d0: 8335 0dbc 032b bbbb bef2 b2bd f176 eabd
000000e0: b37f 7cbd e6f4 0cbe 092c a7bc 2f5a 73bd
000000f0: 4e41 e93b cf0c d63b 1a3e 303d fa94 8d3d
00000100: f21c 22bd 0e6b fd3d 0a72 f1bd 6908 f0ba
00000110: 1033 48be a78e 23bd 0cd4 e73c 5250 3e3d
00000120: 8baf 9f3d 10c2 81bd 9695 da3a 3d05 133e
00000130: 6d5a 003e 0c14 2cbe 7f12 67bd b48e 1bbc
00000140: 6161 5d3c f725 1f3e 6042 c6bd 1d61 9abd
00000150: a558 83bd 9e55 44bd 8920 003d 80bb 1b3d
00000160: acad e2bc abf9 c63d 7492 283d 864c ecbd
00000170: df24 abbc 0b29 34be 9d1f 7cbd dc5f 4c3c
00000180: 7f63 0b3d eab7 e83c 84d6 24bd 65d1 c93c
00000190: d298 e53a 47dd 4bbd ac41 a33d a037 c23d
000001a0: f591 75bd 101c 833c 9e88 b5bd c007 eb3d
000001b0: 80fc 0a3e b8c4 78bd d143 abbd 58fc b2bd
000001c0: f9a7 2cbe 82e8 f93d 5adc e2bd 4f00 7e3d
000001d0: 3509 2d3d 4bce 58bd 59d4 74bd 6867 fdbd
000001e0: 9116 11bd f518 87bd 22ce ddbd 2dd7 f83d
000001f0: a5bb 43bc df42 6fbd 1340 a0bd 74dd 80bd
00000200: 62da d0bd 33d3 12bd cdd5 1fbd 729a 473d
00000210: 83a2 6a3d a36d b4bd 9f9d 0fbe be89 603c
00000220: 78e4 8ebd ef6d 3a3d c25f 003d 2953 f9bd
00000230: cd07 5cbd 95f3 b73d cdf7 c63d 8009 4c3c
00000240: 5799 923d eb7b 51bd 1257 2fbd 760f 9a3d
00000250: 96b0 a9bd 045e fc3c 2948 00be 660c c5bd
00000260: e859 ddbc 4cec 2cbe 22bf a4bd 11c8 233e
00000270: f4af 873d 2865 003e 42c4 dcbc 27aa 8abd
00000280: a5a9 8b3d 8c32 97bd 3610 b63d f7d9 dcbc
00000290: 67d0 a93d b464 dd3d a225 143e 0699 923d
000002a0: 8a44 c9bc ed6d a0bd 898a b83d 1338 5fbc
000002b0: 51db 0fbe 5654 9d3d acd1 ce3b 33a6 8b3d
000002c0: e59d 0e3e b9a7 16be 99b6 cc3d 3f7b b8bd
000002d0: 6d7a d73d 459d 2e3c 60e4 863d 7caa 94bd
000002e0: 3705 1e3e 78fd c23d 26c3 dc3d 1d36 ebbc
000002f0: c2ce aa3c d130 0d3e dee7 b3bd e1d1 233c
00000300: 999a d9bd 8f63 f1bc ad7d bcbd b608 16bc
00000310: 6bdc b8bd a7db 8d3c 4df3 bbbd e4d9 353d
00000320: 58a7 d6bd 8894 04be 1936 8b3d 84aa 18be
00000330: 6b17 f4bd 89d3 cabc 8cfb 30bd 24ec c43d
00000340: 0830 82bc f148 0cbd fcda 6dbd f678 0c3d
00000350: d1a8 bfbd f5d5 febc 85ba d4bd bb8e c1bd
00000360: f73d 933d de61 ae3d e4fb 1b3e 3189 1c3e
00000370: 553e 07bc aac0 9fbd e40a 963d c81c 70bb
00000380: 3c08 a63d dbfa 04b9 9d59 953d bc1c b0bc
00000390: 455c 923d 1d72 c53c 54c2 533d 2b09 49bd
000003a0: be4d 72bd c7b4 92bd 7405 fdbd 3fa8 a8bd
000003b0: f9e3 083c 58c0 babc c54d 8c3d 65e2 63bc
000003c0: 9ee4 783d fc38 66bc 4e0f 10bd cb69 4cbc
000003d0: 20e7 173e 3a02 14be a7c5 05bd afde 043e
000003e0: 3ee5 42bd 41e7 45ba b026 3c3b 20de 863d
000003f0: 780b 95bd c38e 113e 845e 1abe 79df 1bbe

rnn.bias_ih_l0 f4 [64]
0.07853656 0.09096613 -0.07442504 0.10509129 0.09486009 -0.024063732 -0.04746043 0.091346726
-0.06257632 0.11651258 0.14359233 -0.13337384 -0.14988576 0.11755757 -0.039393753 0.037928358
-0.018681865 -0.1472909 -0.06560748 0.052071825 0.0154766105 -0.12729423 -0.014603648 0.080429025
-0.12711343 -0.03840692 0.14774133 -0.007951311 0.067672655 -0.052160937 0.12895632 -0.07684889
0.0019852072 -0.031954654 -0.0760479 0.0038754095 -0.052767042 0.05010138 0.10126025 -0.12938496
0.0708601 -0.046479993 -0.020847028 -0.13034424 -0.061873302 0.10898692 -0.059447315 0.04672994
-0.009622884 -0.13809586 -0.038614623 0.0150609985 -0.06473846 0.014796948 0.10048427 0.007494763
0.05745647 0.08902091 -0.011569243 0.010572601 -0.033506636 0.065500885 -0.10674474 -0.020742992
00000000: c7d7 a03d 734c ba3d 286c 98bd 1a3a d73d
00000010: 0246 c23d 4e21 c5bc de65 42bd fe13 bb3d
00000020: 0328 80bd 269e ee3d de09 133e 2793 08be
00000030: a77b 19be 06c2 f03d 585b 21bd c45a 1b3d
00000040: b60a 99bc 6dd3 16be 375d 86bd 4449 553d
00000050: 9c91 7d3c 6b59 02be 2444 6fbc f9b7 a43d
00000060: 062a 02be 9350 1dbd 8149 173e 3746 02bc
00000070: f697 8a3d b5a6 55bd 200d 043e f362 9dbd
00000080: 401a 023b e2e2 02bd 00bf 9bbd 95fa 7d3b
00000090: 4122 58bd 1b37 4d3d 8961 cf3d 7e7d 04be
000000a0: 1a1f 913d ce61 3ebd 63c7 aabc f678 05be
000000b0: dc6e 7dbd 8934 df3d 077f 73bd e567 3f3d
000000c0: 4da9 1dbc 0069 0dbe 5e2a 1ebd 68c2 763c
000000d0: 9995 84bd e66e 723c b2ca cd3d a196 f53b
000000e0: 7a57 6b3d 9850 b63d ec8c 3dbc b438 2d3c
000000f0: 413e 09bd 5425 863d fc9c dabd 35ed a9bc

rnn.bias_hh_l0 f4 [64]
-0.03239901 0.0981622 0.118874505 0.0836505 -0.042053517 0.14813197 -0.02557022 0.007913714
0.05251539 -0.104880735 0.036000255 0.06338122 0.036684677 -0.06388751 0.15122066 0.11266418
-0.09058781 -0.038234487 0.06923461 0.042834457 0.067904875 0.0584026 -0.1011525 -0.016682278
-0.11909906 -0.003977863 0.12940985 0.1429235 0.00077727844 0.03788186 0.068983786 -0.082113326
-0.013196742 0.12685816 -0.014639432 -0.050349623 0.026193261 0.062249165 0.09652605 -0.1339889
-0.0017048449 -0.06472706 0.008243658 0.035528593 -0.049857832 -0.040489577 0.12785052 0.07688521
-0.05969205 0.025889622 0.004170947 0.08932094 -0.022946743 -0.019682694 -0.012235243 0.08802337
0.13540308 0.110914916 0.10456876 -0.10726866 0.09590165 0.07937128 0.013430278 0.081370115
00000000: d3b4 04bd 4309 c93d 7a74 f33d f450 ab3d
00000010: 4f40 2cbd e8af 173e a378 d1bc 86a8 013c
00000020: 611a 573d b6cb d6bd 0175 133d 03ce 813d
00000030: ac42 163d 74d7 82bd 97d9 1a3e 7abc e63d
00000040: 1a86 b9bd c49b 1cbd e0ca 8d3d 2f73 2f3d
00000050: b611 8b3d 9137 6f3d 0b29 cfbd 46a9 88bc
00000060: 35ea f3bd bc58 82bb 0484 043e 8a5a 123e
00000070: 46c2 4b3a 022a 1b3d 5f47 8d3d 082b a8bd
00000080: 2637 58bc 1be7 013e 3ada 6fbc 683b 4ebd
00000090: 4093 d63c fbf8 7e3d 73af c53d 6334 09be
000000a0: 1a75 dfba 9f8f 84bd 6810 073c 6e86 113d
000000b0: ba37 4cbd 66d8 25bd 3feb 023e fe75 9d3d
000000c0: a77f 74bd 7916 d43c 70ac 883b e6ed b63d
000000d0: cffa bbbc 9a3d a1bc 5476 48bc 9945 b43d
000000e0: 1ba7 0a3e 5c27 e33d 2528 d63d acaf dbbd
000000f0: 1668 c43d 698d a23d ab0a 5c3c 60a5 a63d

fc.weight f4 [1, 64]
-0.44683826 -0.2226152 0.31346416 0.21412428 0.7434429 0.24352907 -0.26190946 0.21969458
-0.2819837 -0.21654932 0.25770402 -0.16756028 -0.22517096 0.3467466 0.37906653 0.35602677
-0.35657945 -0.31579235 0.27400526 -0.24149117 -0.46178943 -0.29512858 -0.28501636 -0.27875456
-0.34120637 -0.43523583 0.21595176 0.38637045 0.26177815 0.32283577 0.14129052 -0.24537988
0.24029037 0.28740424 0.23150988 -0.301136 0.079844326 -0.25903636 -0.09084302 -0.2336558
0.31765044 -0.121633604 -0.096243836 -0.41489726 -0.1908973 0.29779822 0.25095212 0.17702961
0.5391919 -0.28168613 0.23989993 -0.2997214 0.36465833 -0.16519432 0.1660274 0.10080123
0.20041321 0.20548175 0.18345943 -0.19150257 -0.16463907 0.25977278 -0.08321742 -0.21898331
00000000: fcc7 e4be 3df5 63be 607e a03e 6543 5b3e
00000010: 4652 3e3f af5f 793e ff18 86be 9ef7 603e
00000020: 2b60 90be 1bbf 5dbe c8f1 833e ec94 2bbe
00000030: 3793 66be c588 b13e 0215 c23e 2449 b63e
00000040: 9591 b6be 89af a1be 6b4a 8c3e 7649 77be
00000050: aa6f ecbe 181b 97be aaed 91be ebb8 8ebe
00000060: 9ab2 aebe 3bd7 debe 7522 5d3e 59d2 c53e
00000070: c907 863e bb4a a53e 76ae 103e dd44 7bbe
00000080: ae0e 763e a626 933e ed10 6d3e 7f2e 9abe
00000090: 6c85 a33d 6aa0 84be e80b babd 7743 6fbe
000000a0: 14a3 a23e 0a1b f9bd 7d1b c5bd 6a6d d4be
000000b0: 957a 43be 0279 983e cc7c 803e 4047 353e
000000c0: 7b08 0a3f 2a39 90be 54a8 753e 1575 99be
000000d0: 7fb4 ba3e b328 29be 1603 2a3e e070 ce3d
000000e0: 1f39 4d3e cf69 523e cadc 3b3e 4019 44be
000000f0: 2597 28be f000 853e e56d aabd 293d 60be
